{"format": "graph-model", "generatedBy": "2.17.0", "convertedBy": "TensorFlow.js Converter v4.21.0", "signature": {"outputs": {"Identity:0": {"name": "Identity:0"}}}, "modelTopology": {"node": [{"name": "ConstantFolding/model_13/tf.math.divide/truediv_recip", "op": "Const", "attr": {"value": {"tensor": {"dtype": "DT_FLOAT", "tensorShape": {"dim": [{"size": "1"}, {"size": "1"}, {"size": "1"}]}}}, "dtype": {"type": "DT_FLOAT"}}}, {"name": "model_13/24327", "op": "Const", "attr": {"value": {"tensor": {"dtype": "DT_FLOAT", "tensorShape": {"dim": [{"size": "1"}, {"size": "2"}, {"size": "2100"}]}}}, "dtype": {"type": "DT_FLOAT"}}}, {"name": "model_13/tf.strided_slice_19/ones_like/tensor", "op": "Const", "attr": {"dtype": {"type": "DT_INT64"}, "value": {"tensor": {"dtype": "DT_INT64", "tensorShape": {"dim": [{"size": "3"}]}}}}}, {"name": "model_13/tf.strided_slice_19/StridedSlice/end", "op": "Const", "attr": {"value": {"tensor": {"dtype": "DT_INT64", "tensorShape": {"dim": [{"size": "3"}]}}}, "dtype": {"type": "DT_INT64"}}}, {"name": "model_13/tf.strided_slice_19/ones_like", "op": "Const", "attr": {"dtype": {"type": "DT_INT64"}, "value": {"tensor": {"dtype": "DT_INT64", "tensorShape": {"dim": [{"size": "3"}]}}}}}, {"name": "model_13/24330", "op": "Const", "attr": {"value": {"tensor": {"dtype": "DT_FLOAT", "tensorShape": {"dim": [{"size": "1"}, {"size": "2"}, {"size": "2100"}]}}}, "dtype": {"type": "DT_FLOAT"}}}, {"name": "model_13/tf.strided_slice_16/StridedSlice/begin", "op": "Const", "attr": {"dtype": {"type": "DT_INT64"}, "value": {"tensor": {"dtype": "DT_INT64", "tensorShape": {"dim": [{"size": "3"}]}}}}}, {"name": "model_13/tf.strided_slice_16/StridedSlice/end", "op": "Const", "attr": {"value": {"tensor": {"dtype": "DT_INT64", "tensorShape": {"dim": [{"size": "3"}]}}}, "dtype": {"type": "DT_INT64"}}}, {"name": "model_13/tf.strided_slice_16/StridedSlice/strides", "op": "Const", "attr": {"dtype": {"type": "DT_INT64"}, "value": {"tensor": {"dtype": "DT_INT64", "tensorShape": {"dim": [{"size": "3"}]}}}}}, {"name": "model_13/tf.reshape_11/Reshape/shape", "op": "Const", "attr": {"value": {"tensor": {"dtype": "DT_INT32", "tensorShape": {"dim": [{"size": "4"}]}}}, "dtype": {"type": "DT_INT32"}}}, {"name": "model_13/tf.compat.v1.transpose_19/transpose/perm", "op": "Const", "attr": {"value": {"tensor": {"dtype": "DT_INT32", "tensorShape": {"dim": [{"size": "4"}]}}}, "dtype": {"type": "DT_INT32"}}}, {"name": "model_13/tf.compat.v1.transpose_20/transpose/perm", "op": "Const", "attr": {"dtype": {"type": "DT_INT32"}, "value": {"tensor": {"dtype": "DT_INT32", "tensorShape": {"dim": [{"size": "4"}]}}}}}, {"name": "model_13/tf.nn.convolution_63/convolution/filter", "op": "Const", "attr": {"value": {"tensor": {"dtype": "DT_FLOAT", "tensorShape": {"dim": [{"size": "1"}, {"size": "1"}, {"size": "16"}, {"size": "1"}]}}}, "dtype": {"type": "DT_FLOAT"}}}, {"name": "model_13/tf.compat.v1.transpose_25/transpose/perm", "op": "Const", "attr": {"dtype": {"type": "DT_INT32"}, "value": {"tensor": {"dtype": "DT_INT32", "tensorShape": {"dim": [{"size": "4"}]}}}}}, {"name": "model_13/tf.reshape_14/Reshape/shape", "op": "Const", "attr": {"value": {"tensor": {"dtype": "DT_INT32", "tensorShape": {"dim": [{"size": "3"}]}}}, "dtype": {"type": "DT_INT32"}}}, {"name": "model_13/tf.strided_slice_18/ones_like/tensor", "op": "Const", "attr": {"value": {"tensor": {"dtype": "DT_INT64", "tensorShape": {"dim": [{"size": "3"}]}}}, "dtype": {"type": "DT_INT64"}}}, {"name": "model_13/tf.strided_slice_18/StridedSlice/end", "op": "Const", "attr": {"dtype": {"type": "DT_INT64"}, "value": {"tensor": {"dtype": "DT_INT64", "tensorShape": {"dim": [{"size": "3"}]}}}}}, {"name": "model_13/tf.strided_slice_18/ones_like", "op": "Const", "attr": {"value": {"tensor": {"dtype": "DT_INT64", "tensorShape": {"dim": [{"size": "3"}]}}}, "dtype": {"type": "DT_INT64"}}}, {"name": "model_13/tf.concat_20/concat/axis", "op": "Const", "attr": {"dtype": {"type": "DT_INT32"}, "value": {"tensor": {"dtype": "DT_INT32", "tensorShape": {}}}}}, {"name": "model_13/tf.math.multiply_252/Mul/y", "op": "Const", "attr": {"value": {"tensor": {"dtype": "DT_FLOAT", "tensorShape": {"dim": [{"size": "1"}, {"size": "1"}, {"size": "2100"}]}}}, "dtype": {"type": "DT_FLOAT"}}}, {"name": "model_13/tf.nn.convolution_36/convolution/filter", "op": "Const", "attr": {"value": {"tensor": {"dtype": "DT_FLOAT", "tensorShape": {"dim": [{"size": "3"}, {"size": "3"}, {"size": "64"}, {"size": "64"}]}}}, "dtype": {"type": "DT_FLOAT"}}}, {"name": "model_13/tf.math.add_48/Add/y", "op": "Const", "attr": {"dtype": {"type": "DT_FLOAT"}, "value": {"tensor": {"dtype": "DT_FLOAT", "tensorShape": {"dim": [{"size": "64"}]}}}}}, {"name": "model_13/tf.nn.convolution_38/convolution/filter", "op": "Const", "attr": {"dtype": {"type": "DT_FLOAT"}, "value": {"tensor": {"dtype": "DT_FLOAT", "tensorShape": {"dim": [{"size": "3"}, {"size": "3"}, {"size": "64"}, {"size": "64"}]}}}}}, {"name": "model_13/tf.math.add_50/Add/y", "op": "Const", "attr": {"dtype": {"type": "DT_FLOAT"}, "value": {"tensor": {"dtype": "DT_FLOAT", "tensorShape": {"dim": [{"size": "64"}]}}}}}, {"name": "model_13/tf.nn.convolution_41/convolution/filter", "op": "Const", "attr": {"dtype": {"type": "DT_FLOAT"}, "value": {"tensor": {"dtype": "DT_FLOAT", "tensorShape": {"dim": [{"size": "1"}, {"size": "1"}, {"size": "64"}, {"size": "64"}]}}}}}, {"name": "model_13/tf.math.add_53/Add/y", "op": "Const", "attr": {"dtype": {"type": "DT_FLOAT"}, "value": {"tensor": {"dtype": "DT_FLOAT", "tensorShape": {"dim": [{"size": "64"}]}}}}}, {"name": "model_13/tf.nn.convolution_37/convolution/filter", "op": "Const", "attr": {"dtype": {"type": "DT_FLOAT"}, "value": {"tensor": {"dtype": "DT_FLOAT", "tensorShape": {"dim": [{"size": "3"}, {"size": "3"}, {"size": "64"}, {"size": "64"}]}}}}}, {"name": "model_13/tf.math.add_49/Add/y", "op": "Const", "attr": {"value": {"tensor": {"dtype": "DT_FLOAT", "tensorShape": {"dim": [{"size": "64"}]}}}, "dtype": {"type": "DT_FLOAT"}}}, {"name": "model_13/tf.nn.convolution_39/convolution/filter", "op": "Const", "attr": {"value": {"tensor": {"dtype": "DT_FLOAT", "tensorShape": {"dim": [{"size": "3"}, {"size": "3"}, {"size": "64"}, {"size": "64"}]}}}, "dtype": {"type": "DT_FLOAT"}}}, {"name": "model_13/tf.math.add_51/Add/y", "op": "Const", "attr": {"dtype": {"type": "DT_FLOAT"}, "value": {"tensor": {"dtype": "DT_FLOAT", "tensorShape": {"dim": [{"size": "64"}]}}}}}, {"name": "model_13/tf.nn.convolution_42/convolution/filter", "op": "Const", "attr": {"value": {"tensor": {"dtype": "DT_FLOAT", "tensorShape": {"dim": [{"size": "1"}, {"size": "1"}, {"size": "64"}, {"size": "1"}]}}}, "dtype": {"type": "DT_FLOAT"}}}, {"name": "model_13/tf.math.add_54/Add/y", "op": "Const", "attr": {"value": {"tensor": {"dtype": "DT_FLOAT", "tensorShape": {"dim": [{"size": "1"}]}}}, "dtype": {"type": "DT_FLOAT"}}}, {"name": "model_13/tf.concat_10/concat/axis", "op": "Const", "attr": {"dtype": {"type": "DT_INT32"}, "value": {"tensor": {"dtype": "DT_INT32", "tensorShape": {}}}}}, {"name": "model_13/tf.compat.v1.transpose_2/transpose/perm", "op": "Const", "attr": {"value": {"tensor": {"dtype": "DT_INT32", "tensorShape": {"dim": [{"size": "4"}]}}}, "dtype": {"type": "DT_INT32"}}}, {"name": "model_13/tf.reshape_2/Reshape/shape", "op": "Const", "attr": {"dtype": {"type": "DT_INT32"}, "value": {"tensor": {"dtype": "DT_INT32", "tensorShape": {"dim": [{"size": "3"}]}}}}}, {"name": "model_13/tf.nn.convolution_47/convolution/filter", "op": "Const", "attr": {"value": {"tensor": {"dtype": "DT_FLOAT", "tensorShape": {"dim": [{"size": "3"}, {"size": "3"}, {"size": "128"}, {"size": "64"}]}}}, "dtype": {"type": "DT_FLOAT"}}}, {"name": "model_13/tf.math.add_59/Add/y", "op": "Const", "attr": {"dtype": {"type": "DT_FLOAT"}, "value": {"tensor": {"dtype": "DT_FLOAT", "tensorShape": {"dim": [{"size": "64"}]}}}}}, {"name": "model_13/tf.nn.convolution_49/convolution/filter", "op": "Const", "attr": {"value": {"tensor": {"dtype": "DT_FLOAT", "tensorShape": {"dim": [{"size": "3"}, {"size": "3"}, {"size": "64"}, {"size": "64"}]}}}, "dtype": {"type": "DT_FLOAT"}}}, {"name": "model_13/tf.math.add_61/Add/y", "op": "Const", "attr": {"dtype": {"type": "DT_FLOAT"}, "value": {"tensor": {"dtype": "DT_FLOAT", "tensorShape": {"dim": [{"size": "64"}]}}}}}, {"name": "model_13/tf.nn.convolution_52/convolution/filter", "op": "Const", "attr": {"dtype": {"type": "DT_FLOAT"}, "value": {"tensor": {"dtype": "DT_FLOAT", "tensorShape": {"dim": [{"size": "1"}, {"size": "1"}, {"size": "64"}, {"size": "64"}]}}}}}, {"name": "model_13/tf.math.add_64/Add/y", "op": "Const", "attr": {"dtype": {"type": "DT_FLOAT"}, "value": {"tensor": {"dtype": "DT_FLOAT", "tensorShape": {"dim": [{"size": "64"}]}}}}}, {"name": "model_13/tf.nn.convolution_48/convolution/filter", "op": "Const", "attr": {"value": {"tensor": {"dtype": "DT_FLOAT", "tensorShape": {"dim": [{"size": "3"}, {"size": "3"}, {"size": "128"}, {"size": "64"}]}}}, "dtype": {"type": "DT_FLOAT"}}}, {"name": "model_13/tf.math.add_60/Add/y", "op": "Const", "attr": {"value": {"tensor": {"dtype": "DT_FLOAT", "tensorShape": {"dim": [{"size": "64"}]}}}, "dtype": {"type": "DT_FLOAT"}}}, {"name": "model_13/tf.nn.convolution_50/convolution/filter", "op": "Const", "attr": {"value": {"tensor": {"dtype": "DT_FLOAT", "tensorShape": {"dim": [{"size": "3"}, {"size": "3"}, {"size": "64"}, {"size": "64"}]}}}, "dtype": {"type": "DT_FLOAT"}}}, {"name": "model_13/tf.math.add_62/Add/y", "op": "Const", "attr": {"value": {"tensor": {"dtype": "DT_FLOAT", "tensorShape": {"dim": [{"size": "64"}]}}}, "dtype": {"type": "DT_FLOAT"}}}, {"name": "model_13/tf.nn.convolution_53/convolution/filter", "op": "Const", "attr": {"dtype": {"type": "DT_FLOAT"}, "value": {"tensor": {"dtype": "DT_FLOAT", "tensorShape": {"dim": [{"size": "1"}, {"size": "1"}, {"size": "64"}, {"size": "1"}]}}}}}, {"name": "model_13/tf.math.add_65/Add/y", "op": "Const", "attr": {"dtype": {"type": "DT_FLOAT"}, "value": {"tensor": {"dtype": "DT_FLOAT", "tensorShape": {"dim": [{"size": "1"}]}}}}}, {"name": "model_13/tf.concat_13/concat/axis", "op": "Const", "attr": {"dtype": {"type": "DT_INT32"}, "value": {"tensor": {"dtype": "DT_INT32", "tensorShape": {}}}}}, {"name": "model_13/tf.compat.v1.transpose_7/transpose/perm", "op": "Const", "attr": {"dtype": {"type": "DT_INT32"}, "value": {"tensor": {"dtype": "DT_INT32", "tensorShape": {"dim": [{"size": "4"}]}}}}}, {"name": "model_13/tf.reshape_5/Reshape/shape", "op": "Const", "attr": {"value": {"tensor": {"dtype": "DT_INT32", "tensorShape": {"dim": [{"size": "3"}]}}}, "dtype": {"type": "DT_INT32"}}}, {"name": "model_13/tf.nn.convolution_57/convolution/filter", "op": "Const", "attr": {"dtype": {"type": "DT_FLOAT"}, "value": {"tensor": {"dtype": "DT_FLOAT", "tensorShape": {"dim": [{"size": "3"}, {"size": "3"}, {"size": "256"}, {"size": "64"}]}}}}}, {"name": "model_13/tf.math.add_69/Add/y", "op": "Const", "attr": {"dtype": {"type": "DT_FLOAT"}, "value": {"tensor": {"dtype": "DT_FLOAT", "tensorShape": {"dim": [{"size": "64"}]}}}}}, {"name": "model_13/tf.nn.convolution_59/convolution/filter", "op": "Const", "attr": {"value": {"tensor": {"dtype": "DT_FLOAT", "tensorShape": {"dim": [{"size": "3"}, {"size": "3"}, {"size": "64"}, {"size": "64"}]}}}, "dtype": {"type": "DT_FLOAT"}}}, {"name": "model_13/tf.math.add_71/Add/y", "op": "Const", "attr": {"dtype": {"type": "DT_FLOAT"}, "value": {"tensor": {"dtype": "DT_FLOAT", "tensorShape": {"dim": [{"size": "64"}]}}}}}, {"name": "model_13/tf.nn.convolution_61/convolution/filter", "op": "Const", "attr": {"dtype": {"type": "DT_FLOAT"}, "value": {"tensor": {"dtype": "DT_FLOAT", "tensorShape": {"dim": [{"size": "1"}, {"size": "1"}, {"size": "64"}, {"size": "64"}]}}}}}, {"name": "model_13/tf.math.add_73/Add/y", "op": "Const", "attr": {"value": {"tensor": {"dtype": "DT_FLOAT", "tensorShape": {"dim": [{"size": "64"}]}}}, "dtype": {"type": "DT_FLOAT"}}}, {"name": "model_13/tf.strided_slice_14/ones_like/tensor", "op": "Const", "attr": {"dtype": {"type": "DT_INT64"}, "value": {"tensor": {"dtype": "DT_INT64", "tensorShape": {"dim": [{"size": "4"}]}}}}}, {"name": "model_13/tf.strided_slice_14/StridedSlice/end", "op": "Const", "attr": {"value": {"tensor": {"dtype": "DT_INT64", "tensorShape": {"dim": [{"size": "4"}]}}}, "dtype": {"type": "DT_INT64"}}}, {"name": "model_13/tf.strided_slice_14/ones_like", "op": "Const", "attr": {"dtype": {"type": "DT_INT64"}, "value": {"tensor": {"dtype": "DT_INT64", "tensorShape": {"dim": [{"size": "4"}]}}}}}, {"name": "model_13/tf.strided_slice_12/ones_like/tensor", "op": "Const", "attr": {"dtype": {"type": "DT_INT64"}, "value": {"tensor": {"dtype": "DT_INT64", "tensorShape": {"dim": [{"size": "4"}]}}}}}, {"name": "model_13/tf.strided_slice_12/StridedSlice/end", "op": "Const", "attr": {"value": {"tensor": {"dtype": "DT_INT64", "tensorShape": {"dim": [{"size": "4"}]}}}, "dtype": {"type": "DT_INT64"}}}, {"name": "model_13/tf.strided_slice_12/ones_like", "op": "Const", "attr": {"value": {"tensor": {"dtype": "DT_INT64", "tensorShape": {"dim": [{"size": "4"}]}}}, "dtype": {"type": "DT_INT64"}}}, {"name": "model_13/tf.strided_slice_10/ones_like/tensor", "op": "Const", "attr": {"dtype": {"type": "DT_INT64"}, "value": {"tensor": {"dtype": "DT_INT64", "tensorShape": {"dim": [{"size": "4"}]}}}}}, {"name": "model_13/tf.strided_slice_10/StridedSlice/end", "op": "Const", "attr": {"value": {"tensor": {"dtype": "DT_INT64", "tensorShape": {"dim": [{"size": "4"}]}}}, "dtype": {"type": "DT_INT64"}}}, {"name": "model_13/tf.strided_slice_10/ones_like", "op": "Const", "attr": {"value": {"tensor": {"dtype": "DT_INT64", "tensorShape": {"dim": [{"size": "4"}]}}}, "dtype": {"type": "DT_INT64"}}}, {"name": "model_13/tf.image.resize_1/resize/size", "op": "Const", "attr": {"dtype": {"type": "DT_INT32"}, "value": {"tensor": {"dtype": "DT_INT32", "tensorShape": {"dim": [{"size": "2"}]}}}}}, {"name": "model_13/tf.concat_7/concat/axis", "op": "Const", "attr": {"value": {"tensor": {"dtype": "DT_INT32", "tensorShape": {}}}, "dtype": {"type": "DT_INT32"}}}, {"name": "model_13/tf.nn.convolution_31/convolution/filter", "op": "Const", "attr": {"dtype": {"type": "DT_FLOAT"}, "value": {"tensor": {"dtype": "DT_FLOAT", "tensorShape": {"dim": [{"size": "1"}, {"size": "1"}, {"size": "192"}, {"size": "64"}]}}}}}, {"name": "model_13/tf.math.add_43/Add/y", "op": "Const", "attr": {"value": {"tensor": {"dtype": "DT_FLOAT", "tensorShape": {"dim": [{"size": "64"}]}}}, "dtype": {"type": "DT_FLOAT"}}}, {"name": "model_13/tf.strided_slice_11/ones_like/tensor", "op": "Const", "attr": {"value": {"tensor": {"dtype": "DT_INT64", "tensorShape": {"dim": [{"size": "4"}]}}}, "dtype": {"type": "DT_INT64"}}}, {"name": "model_13/tf.strided_slice_11/StridedSlice/end", "op": "Const", "attr": {"dtype": {"type": "DT_INT64"}, "value": {"tensor": {"dtype": "DT_INT64", "tensorShape": {"dim": [{"size": "4"}]}}}}}, {"name": "model_13/tf.strided_slice_11/ones_like", "op": "Const", "attr": {"dtype": {"type": "DT_INT64"}, "value": {"tensor": {"dtype": "DT_INT64", "tensorShape": {"dim": [{"size": "4"}]}}}}}, {"name": "model_13/tf.nn.convolution_32/convolution/filter", "op": "Const", "attr": {"value": {"tensor": {"dtype": "DT_FLOAT", "tensorShape": {"dim": [{"size": "3"}, {"size": "3"}, {"size": "32"}, {"size": "32"}]}}}, "dtype": {"type": "DT_FLOAT"}}}, {"name": "model_13/tf.math.add_44/Add/y", "op": "Const", "attr": {"value": {"tensor": {"dtype": "DT_FLOAT", "tensorShape": {"dim": [{"size": "32"}]}}}, "dtype": {"type": "DT_FLOAT"}}}, {"name": "model_13/tf.nn.convolution_33/convolution/filter", "op": "Const", "attr": {"value": {"tensor": {"dtype": "DT_FLOAT", "tensorShape": {"dim": [{"size": "3"}, {"size": "3"}, {"size": "32"}, {"size": "32"}]}}}, "dtype": {"type": "DT_FLOAT"}}}, {"name": "model_13/tf.math.add_45/Add/y", "op": "Const", "attr": {"value": {"tensor": {"dtype": "DT_FLOAT", "tensorShape": {"dim": [{"size": "32"}]}}}, "dtype": {"type": "DT_FLOAT"}}}, {"name": "model_13/tf.concat_8/concat/axis", "op": "Const", "attr": {"value": {"tensor": {"dtype": "DT_INT32", "tensorShape": {}}}, "dtype": {"type": "DT_INT32"}}}, {"name": "model_13/tf.nn.convolution_34/convolution/filter", "op": "Const", "attr": {"value": {"tensor": {"dtype": "DT_FLOAT", "tensorShape": {"dim": [{"size": "1"}, {"size": "1"}, {"size": "96"}, {"size": "64"}]}}}, "dtype": {"type": "DT_FLOAT"}}}, {"name": "model_13/tf.math.add_46/Add/y", "op": "Const", "attr": {"value": {"tensor": {"dtype": "DT_FLOAT", "tensorShape": {"dim": [{"size": "64"}]}}}, "dtype": {"type": "DT_FLOAT"}}}, {"name": "model_13/tf.compat.v1.pad_5/Pad/paddings", "op": "Const", "attr": {"value": {"tensor": {"dtype": "DT_INT32", "tensorShape": {"dim": [{"size": "4"}, {"size": "2"}]}}}, "dtype": {"type": "DT_INT32"}}}, {"name": "model_13/tf.nn.convolution_35/convolution/filter", "op": "Const", "attr": {"value": {"tensor": {"dtype": "DT_FLOAT", "tensorShape": {"dim": [{"size": "3"}, {"size": "3"}, {"size": "64"}, {"size": "64"}]}}}, "dtype": {"type": "DT_FLOAT"}}}, {"name": "model_13/tf.math.add_47/Add/y", "op": "Const", "attr": {"dtype": {"type": "DT_FLOAT"}, "value": {"tensor": {"dtype": "DT_FLOAT", "tensorShape": {"dim": [{"size": "64"}]}}}}}, {"name": "model_13/tf.strided_slice_8/ones_like/tensor", "op": "Const", "attr": {"value": {"tensor": {"dtype": "DT_INT64", "tensorShape": {"dim": [{"size": "4"}]}}}, "dtype": {"type": "DT_INT64"}}}, {"name": "model_13/tf.strided_slice_8/StridedSlice/end", "op": "Const", "attr": {"value": {"tensor": {"dtype": "DT_INT64", "tensorShape": {"dim": [{"size": "4"}]}}}, "dtype": {"type": "DT_INT64"}}}, {"name": "model_13/tf.strided_slice_8/ones_like", "op": "Const", "attr": {"dtype": {"type": "DT_INT64"}, "value": {"tensor": {"dtype": "DT_INT64", "tensorShape": {"dim": [{"size": "4"}]}}}}}, {"name": "model_13/tf.image.resize/resize/size", "op": "Const", "attr": {"value": {"tensor": {"dtype": "DT_INT32", "tensorShape": {"dim": [{"size": "2"}]}}}, "dtype": {"type": "DT_INT32"}}}, {"name": "model_13/tf.concat_5/concat/axis", "op": "Const", "attr": {"dtype": {"type": "DT_INT32"}, "value": {"tensor": {"dtype": "DT_INT32", "tensorShape": {}}}}}, {"name": "model_13/tf.nn.convolution_27/convolution/filter", "op": "Const", "attr": {"dtype": {"type": "DT_FLOAT"}, "value": {"tensor": {"dtype": "DT_FLOAT", "tensorShape": {"dim": [{"size": "1"}, {"size": "1"}, {"size": "384"}, {"size": "128"}]}}}}}, {"name": "model_13/tf.math.add_39/Add/y", "op": "Const", "attr": {"value": {"tensor": {"dtype": "DT_FLOAT", "tensorShape": {"dim": [{"size": "128"}]}}}, "dtype": {"type": "DT_FLOAT"}}}, {"name": "model_13/tf.strided_slice_9/ones_like/tensor", "op": "Const", "attr": {"value": {"tensor": {"dtype": "DT_INT64", "tensorShape": {"dim": [{"size": "4"}]}}}, "dtype": {"type": "DT_INT64"}}}, {"name": "model_13/tf.strided_slice_9/StridedSlice/end", "op": "Const", "attr": {"dtype": {"type": "DT_INT64"}, "value": {"tensor": {"dtype": "DT_INT64", "tensorShape": {"dim": [{"size": "4"}]}}}}}, {"name": "model_13/tf.strided_slice_9/ones_like", "op": "Const", "attr": {"dtype": {"type": "DT_INT64"}, "value": {"tensor": {"dtype": "DT_INT64", "tensorShape": {"dim": [{"size": "4"}]}}}}}, {"name": "model_13/tf.nn.convolution_28/convolution/filter", "op": "Const", "attr": {"dtype": {"type": "DT_FLOAT"}, "value": {"tensor": {"dtype": "DT_FLOAT", "tensorShape": {"dim": [{"size": "3"}, {"size": "3"}, {"size": "64"}, {"size": "64"}]}}}}}, {"name": "model_13/tf.math.add_40/Add/y", "op": "Const", "attr": {"dtype": {"type": "DT_FLOAT"}, "value": {"tensor": {"dtype": "DT_FLOAT", "tensorShape": {"dim": [{"size": "64"}]}}}}}, {"name": "model_13/tf.nn.convolution_29/convolution/filter", "op": "Const", "attr": {"value": {"tensor": {"dtype": "DT_FLOAT", "tensorShape": {"dim": [{"size": "3"}, {"size": "3"}, {"size": "64"}, {"size": "64"}]}}}, "dtype": {"type": "DT_FLOAT"}}}, {"name": "model_13/tf.math.add_41/Add/y", "op": "Const", "attr": {"dtype": {"type": "DT_FLOAT"}, "value": {"tensor": {"dtype": "DT_FLOAT", "tensorShape": {"dim": [{"size": "64"}]}}}}}, {"name": "model_13/tf.concat_6/concat/axis", "op": "Const", "attr": {"dtype": {"type": "DT_INT32"}, "value": {"tensor": {"dtype": "DT_INT32", "tensorShape": {}}}}}, {"name": "model_13/tf.nn.convolution_30/convolution/filter", "op": "Const", "attr": {"value": {"tensor": {"dtype": "DT_FLOAT", "tensorShape": {"dim": [{"size": "1"}, {"size": "1"}, {"size": "192"}, {"size": "128"}]}}}, "dtype": {"type": "DT_FLOAT"}}}, {"name": "model_13/tf.math.add_42/Add/y", "op": "Const", "attr": {"dtype": {"type": "DT_FLOAT"}, "value": {"tensor": {"dtype": "DT_FLOAT", "tensorShape": {"dim": [{"size": "128"}]}}}}}, {"name": "model_13/tf.concat_9/concat/axis", "op": "Const", "attr": {"dtype": {"type": "DT_INT32"}, "value": {"tensor": {"dtype": "DT_INT32", "tensorShape": {}}}}}, {"name": "model_13/tf.nn.convolution_40/convolution/filter", "op": "Const", "attr": {"value": {"tensor": {"dtype": "DT_FLOAT", "tensorShape": {"dim": [{"size": "1"}, {"size": "1"}, {"size": "192"}, {"size": "128"}]}}}, "dtype": {"type": "DT_FLOAT"}}}, {"name": "model_13/tf.math.add_52/Add/y", "op": "Const", "attr": {"value": {"tensor": {"dtype": "DT_FLOAT", "tensorShape": {"dim": [{"size": "128"}]}}}, "dtype": {"type": "DT_FLOAT"}}}, {"name": "model_13/tf.strided_slice_13/ones_like/tensor", "op": "Const", "attr": {"dtype": {"type": "DT_INT64"}, "value": {"tensor": {"dtype": "DT_INT64", "tensorShape": {"dim": [{"size": "4"}]}}}}}, {"name": "model_13/tf.strided_slice_13/StridedSlice/end", "op": "Const", "attr": {"value": {"tensor": {"dtype": "DT_INT64", "tensorShape": {"dim": [{"size": "4"}]}}}, "dtype": {"type": "DT_INT64"}}}, {"name": "model_13/tf.strided_slice_13/ones_like", "op": "Const", "attr": {"dtype": {"type": "DT_INT64"}, "value": {"tensor": {"dtype": "DT_INT64", "tensorShape": {"dim": [{"size": "4"}]}}}}}, {"name": "model_13/tf.nn.convolution_43/convolution/filter", "op": "Const", "attr": {"dtype": {"type": "DT_FLOAT"}, "value": {"tensor": {"dtype": "DT_FLOAT", "tensorShape": {"dim": [{"size": "3"}, {"size": "3"}, {"size": "64"}, {"size": "64"}]}}}}}, {"name": "model_13/tf.math.add_55/Add/y", "op": "Const", "attr": {"value": {"tensor": {"dtype": "DT_FLOAT", "tensorShape": {"dim": [{"size": "64"}]}}}, "dtype": {"type": "DT_FLOAT"}}}, {"name": "model_13/tf.nn.convolution_44/convolution/filter", "op": "Const", "attr": {"dtype": {"type": "DT_FLOAT"}, "value": {"tensor": {"dtype": "DT_FLOAT", "tensorShape": {"dim": [{"size": "3"}, {"size": "3"}, {"size": "64"}, {"size": "64"}]}}}}}, {"name": "model_13/tf.math.add_56/Add/y", "op": "Const", "attr": {"value": {"tensor": {"dtype": "DT_FLOAT", "tensorShape": {"dim": [{"size": "64"}]}}}, "dtype": {"type": "DT_FLOAT"}}}, {"name": "model_13/tf.concat_11/concat/axis", "op": "Const", "attr": {"value": {"tensor": {"dtype": "DT_INT32", "tensorShape": {}}}, "dtype": {"type": "DT_INT32"}}}, {"name": "model_13/tf.nn.convolution_45/convolution/filter", "op": "Const", "attr": {"value": {"tensor": {"dtype": "DT_FLOAT", "tensorShape": {"dim": [{"size": "1"}, {"size": "1"}, {"size": "192"}, {"size": "128"}]}}}, "dtype": {"type": "DT_FLOAT"}}}, {"name": "model_13/tf.math.add_57/Add/y", "op": "Const", "attr": {"value": {"tensor": {"dtype": "DT_FLOAT", "tensorShape": {"dim": [{"size": "128"}]}}}, "dtype": {"type": "DT_FLOAT"}}}, {"name": "model_13/tf.compat.v1.pad_6/Pad/paddings", "op": "Const", "attr": {"dtype": {"type": "DT_INT32"}, "value": {"tensor": {"dtype": "DT_INT32", "tensorShape": {"dim": [{"size": "4"}, {"size": "2"}]}}}}}, {"name": "model_13/tf.nn.convolution_46/convolution/filter", "op": "Const", "attr": {"value": {"tensor": {"dtype": "DT_FLOAT", "tensorShape": {"dim": [{"size": "3"}, {"size": "3"}, {"size": "128"}, {"size": "128"}]}}}, "dtype": {"type": "DT_FLOAT"}}}, {"name": "model_13/tf.math.add_58/Add/y", "op": "Const", "attr": {"dtype": {"type": "DT_FLOAT"}, "value": {"tensor": {"dtype": "DT_FLOAT", "tensorShape": {"dim": [{"size": "128"}]}}}}}, {"name": "model_13/tf.strided_slice_6/ones_like/tensor", "op": "Const", "attr": {"value": {"tensor": {"dtype": "DT_INT64", "tensorShape": {"dim": [{"size": "4"}]}}}, "dtype": {"type": "DT_INT64"}}}, {"name": "model_13/tf.strided_slice_6/StridedSlice/end", "op": "Const", "attr": {"dtype": {"type": "DT_INT64"}, "value": {"tensor": {"dtype": "DT_INT64", "tensorShape": {"dim": [{"size": "4"}]}}}}}, {"name": "model_13/tf.strided_slice_6/ones_like", "op": "Const", "attr": {"dtype": {"type": "DT_INT64"}, "value": {"tensor": {"dtype": "DT_INT64", "tensorShape": {"dim": [{"size": "4"}]}}}}}, {"name": "model_13/tf.strided_slice_4/ones_like/tensor", "op": "Const", "attr": {"value": {"tensor": {"dtype": "DT_INT64", "tensorShape": {"dim": [{"size": "4"}]}}}, "dtype": {"type": "DT_INT64"}}}, {"name": "model_13/tf.strided_slice_4/StridedSlice/end", "op": "Const", "attr": {"value": {"tensor": {"dtype": "DT_INT64", "tensorShape": {"dim": [{"size": "4"}]}}}, "dtype": {"type": "DT_INT64"}}}, {"name": "model_13/tf.strided_slice_4/ones_like", "op": "Const", "attr": {"value": {"tensor": {"dtype": "DT_INT64", "tensorShape": {"dim": [{"size": "4"}]}}}, "dtype": {"type": "DT_INT64"}}}, {"name": "model_13/tf.strided_slice_2/ones_like/tensor", "op": "Const", "attr": {"value": {"tensor": {"dtype": "DT_INT64", "tensorShape": {"dim": [{"size": "4"}]}}}, "dtype": {"type": "DT_INT64"}}}, {"name": "model_13/tf.strided_slice_2/StridedSlice/end", "op": "Const", "attr": {"value": {"tensor": {"dtype": "DT_INT64", "tensorShape": {"dim": [{"size": "4"}]}}}, "dtype": {"type": "DT_INT64"}}}, {"name": "model_13/tf.strided_slice_2/ones_like", "op": "Const", "attr": {"value": {"tensor": {"dtype": "DT_INT64", "tensorShape": {"dim": [{"size": "4"}]}}}, "dtype": {"type": "DT_INT64"}}}, {"name": "model_13/tf.strided_slice/ones_like/tensor", "op": "Const", "attr": {"value": {"tensor": {"dtype": "DT_INT64", "tensorShape": {"dim": [{"size": "4"}]}}}, "dtype": {"type": "DT_INT64"}}}, {"name": "model_13/tf.strided_slice/StridedSlice/end", "op": "Const", "attr": {"value": {"tensor": {"dtype": "DT_INT64", "tensorShape": {"dim": [{"size": "4"}]}}}, "dtype": {"type": "DT_INT64"}}}, {"name": "model_13/tf.strided_slice/ones_like", "op": "Const", "attr": {"value": {"tensor": {"dtype": "DT_INT64", "tensorShape": {"dim": [{"size": "4"}]}}}, "dtype": {"type": "DT_INT64"}}}, {"name": "model_13/tf.compat.v1.pad/Pad/paddings", "op": "Const", "attr": {"dtype": {"type": "DT_INT32"}, "value": {"tensor": {"dtype": "DT_INT32", "tensorShape": {"dim": [{"size": "4"}, {"size": "2"}]}}}}}, {"name": "model_13/tf.nn.convolution/convolution/filter", "op": "Const", "attr": {"value": {"tensor": {"dtype": "DT_FLOAT", "tensorShape": {"dim": [{"size": "3"}, {"size": "3"}, {"size": "3"}, {"size": "16"}]}}}, "dtype": {"type": "DT_FLOAT"}}}, {"name": "model_13/tf.math.add/Add/y", "op": "Const", "attr": {"value": {"tensor": {"dtype": "DT_FLOAT", "tensorShape": {"dim": [{"size": "16"}]}}}, "dtype": {"type": "DT_FLOAT"}}}, {"name": "model_13/tf.compat.v1.pad_1/Pad/paddings", "op": "Const", "attr": {"value": {"tensor": {"dtype": "DT_INT32", "tensorShape": {"dim": [{"size": "4"}, {"size": "2"}]}}}, "dtype": {"type": "DT_INT32"}}}, {"name": "model_13/tf.nn.convolution_1/convolution/filter", "op": "Const", "attr": {"dtype": {"type": "DT_FLOAT"}, "value": {"tensor": {"dtype": "DT_FLOAT", "tensorShape": {"dim": [{"size": "3"}, {"size": "3"}, {"size": "16"}, {"size": "32"}]}}}}}, {"name": "model_13/tf.math.add_1/Add/y", "op": "Const", "attr": {"dtype": {"type": "DT_FLOAT"}, "value": {"tensor": {"dtype": "DT_FLOAT", "tensorShape": {"dim": [{"size": "32"}]}}}}}, {"name": "model_13/tf.nn.convolution_2/convolution/filter", "op": "Const", "attr": {"dtype": {"type": "DT_FLOAT"}, "value": {"tensor": {"dtype": "DT_FLOAT", "tensorShape": {"dim": [{"size": "1"}, {"size": "1"}, {"size": "32"}, {"size": "32"}]}}}}}, {"name": "model_13/tf.math.add_2/Add/y", "op": "Const", "attr": {"dtype": {"type": "DT_FLOAT"}, "value": {"tensor": {"dtype": "DT_FLOAT", "tensorShape": {"dim": [{"size": "32"}]}}}}}, {"name": "model_13/tf.strided_slice_1/ones_like/tensor", "op": "Const", "attr": {"dtype": {"type": "DT_INT64"}, "value": {"tensor": {"dtype": "DT_INT64", "tensorShape": {"dim": [{"size": "4"}]}}}}}, {"name": "model_13/tf.strided_slice_1/StridedSlice/end", "op": "Const", "attr": {"value": {"tensor": {"dtype": "DT_INT64", "tensorShape": {"dim": [{"size": "4"}]}}}, "dtype": {"type": "DT_INT64"}}}, {"name": "model_13/tf.strided_slice_1/ones_like", "op": "Const", "attr": {"value": {"tensor": {"dtype": "DT_INT64", "tensorShape": {"dim": [{"size": "4"}]}}}, "dtype": {"type": "DT_INT64"}}}, {"name": "model_13/tf.nn.convolution_3/convolution/filter", "op": "Const", "attr": {"dtype": {"type": "DT_FLOAT"}, "value": {"tensor": {"dtype": "DT_FLOAT", "tensorShape": {"dim": [{"size": "3"}, {"size": "3"}, {"size": "16"}, {"size": "16"}]}}}}}, {"name": "model_13/tf.math.add_3/Add/y", "op": "Const", "attr": {"value": {"tensor": {"dtype": "DT_FLOAT", "tensorShape": {"dim": [{"size": "16"}]}}}, "dtype": {"type": "DT_FLOAT"}}}, {"name": "model_13/tf.nn.convolution_4/convolution/filter", "op": "Const", "attr": {"dtype": {"type": "DT_FLOAT"}, "value": {"tensor": {"dtype": "DT_FLOAT", "tensorShape": {"dim": [{"size": "3"}, {"size": "3"}, {"size": "16"}, {"size": "16"}]}}}}}, {"name": "model_13/tf.math.add_4/Add/y", "op": "Const", "attr": {"value": {"tensor": {"dtype": "DT_FLOAT", "tensorShape": {"dim": [{"size": "16"}]}}}, "dtype": {"type": "DT_FLOAT"}}}, {"name": "model_13/tf.concat/concat/axis", "op": "Const", "attr": {"dtype": {"type": "DT_INT32"}, "value": {"tensor": {"dtype": "DT_INT32", "tensorShape": {}}}}}, {"name": "model_13/tf.nn.convolution_5/convolution/filter", "op": "Const", "attr": {"dtype": {"type": "DT_FLOAT"}, "value": {"tensor": {"dtype": "DT_FLOAT", "tensorShape": {"dim": [{"size": "1"}, {"size": "1"}, {"size": "48"}, {"size": "32"}]}}}}}, {"name": "model_13/tf.math.add_7/Add/y", "op": "Const", "attr": {"dtype": {"type": "DT_FLOAT"}, "value": {"tensor": {"dtype": "DT_FLOAT", "tensorShape": {"dim": [{"size": "32"}]}}}}}, {"name": "model_13/tf.compat.v1.pad_2/Pad/paddings", "op": "Const", "attr": {"value": {"tensor": {"dtype": "DT_INT32", "tensorShape": {"dim": [{"size": "4"}, {"size": "2"}]}}}, "dtype": {"type": "DT_INT32"}}}, {"name": "model_13/tf.nn.convolution_6/convolution/filter", "op": "Const", "attr": {"value": {"tensor": {"dtype": "DT_FLOAT", "tensorShape": {"dim": [{"size": "3"}, {"size": "3"}, {"size": "32"}, {"size": "64"}]}}}, "dtype": {"type": "DT_FLOAT"}}}, {"name": "model_13/tf.math.add_8/Add/y", "op": "Const", "attr": {"dtype": {"type": "DT_FLOAT"}, "value": {"tensor": {"dtype": "DT_FLOAT", "tensorShape": {"dim": [{"size": "64"}]}}}}}, {"name": "model_13/tf.nn.convolution_7/convolution/filter", "op": "Const", "attr": {"dtype": {"type": "DT_FLOAT"}, "value": {"tensor": {"dtype": "DT_FLOAT", "tensorShape": {"dim": [{"size": "1"}, {"size": "1"}, {"size": "64"}, {"size": "64"}]}}}}}, {"name": "model_13/tf.math.add_9/Add/y", "op": "Const", "attr": {"value": {"tensor": {"dtype": "DT_FLOAT", "tensorShape": {"dim": [{"size": "64"}]}}}, "dtype": {"type": "DT_FLOAT"}}}, {"name": "model_13/tf.strided_slice_3/ones_like/tensor", "op": "Const", "attr": {"value": {"tensor": {"dtype": "DT_INT64", "tensorShape": {"dim": [{"size": "4"}]}}}, "dtype": {"type": "DT_INT64"}}}, {"name": "model_13/tf.strided_slice_3/StridedSlice/end", "op": "Const", "attr": {"value": {"tensor": {"dtype": "DT_INT64", "tensorShape": {"dim": [{"size": "4"}]}}}, "dtype": {"type": "DT_INT64"}}}, {"name": "model_13/tf.strided_slice_3/ones_like", "op": "Const", "attr": {"dtype": {"type": "DT_INT64"}, "value": {"tensor": {"dtype": "DT_INT64", "tensorShape": {"dim": [{"size": "4"}]}}}}}, {"name": "model_13/tf.nn.convolution_8/convolution/filter", "op": "Const", "attr": {"dtype": {"type": "DT_FLOAT"}, "value": {"tensor": {"dtype": "DT_FLOAT", "tensorShape": {"dim": [{"size": "3"}, {"size": "3"}, {"size": "32"}, {"size": "32"}]}}}}}, {"name": "model_13/tf.math.add_10/Add/y", "op": "Const", "attr": {"value": {"tensor": {"dtype": "DT_FLOAT", "tensorShape": {"dim": [{"size": "32"}]}}}, "dtype": {"type": "DT_FLOAT"}}}, {"name": "model_13/tf.nn.convolution_9/convolution/filter", "op": "Const", "attr": {"value": {"tensor": {"dtype": "DT_FLOAT", "tensorShape": {"dim": [{"size": "3"}, {"size": "3"}, {"size": "32"}, {"size": "32"}]}}}, "dtype": {"type": "DT_FLOAT"}}}, {"name": "model_13/tf.math.add_11/Add/y", "op": "Const", "attr": {"value": {"tensor": {"dtype": "DT_FLOAT", "tensorShape": {"dim": [{"size": "32"}]}}}, "dtype": {"type": "DT_FLOAT"}}}, {"name": "model_13/tf.nn.convolution_10/convolution/filter", "op": "Const", "attr": {"dtype": {"type": "DT_FLOAT"}, "value": {"tensor": {"dtype": "DT_FLOAT", "tensorShape": {"dim": [{"size": "3"}, {"size": "3"}, {"size": "32"}, {"size": "32"}]}}}}}, {"name": "model_13/tf.math.add_14/Add/y", "op": "Const", "attr": {"dtype": {"type": "DT_FLOAT"}, "value": {"tensor": {"dtype": "DT_FLOAT", "tensorShape": {"dim": [{"size": "32"}]}}}}}, {"name": "model_13/tf.nn.convolution_11/convolution/filter", "op": "Const", "attr": {"dtype": {"type": "DT_FLOAT"}, "value": {"tensor": {"dtype": "DT_FLOAT", "tensorShape": {"dim": [{"size": "3"}, {"size": "3"}, {"size": "32"}, {"size": "32"}]}}}}}, {"name": "model_13/tf.math.add_15/Add/y", "op": "Const", "attr": {"dtype": {"type": "DT_FLOAT"}, "value": {"tensor": {"dtype": "DT_FLOAT", "tensorShape": {"dim": [{"size": "32"}]}}}}}, {"name": "model_13/tf.concat_1/concat/axis", "op": "Const", "attr": {"dtype": {"type": "DT_INT32"}, "value": {"tensor": {"dtype": "DT_INT32", "tensorShape": {}}}}}, {"name": "model_13/tf.nn.convolution_12/convolution/filter", "op": "Const", "attr": {"dtype": {"type": "DT_FLOAT"}, "value": {"tensor": {"dtype": "DT_FLOAT", "tensorShape": {"dim": [{"size": "1"}, {"size": "1"}, {"size": "128"}, {"size": "64"}]}}}}}, {"name": "model_13/tf.math.add_18/Add/y", "op": "Const", "attr": {"value": {"tensor": {"dtype": "DT_FLOAT", "tensorShape": {"dim": [{"size": "64"}]}}}, "dtype": {"type": "DT_FLOAT"}}}, {"name": "model_13/tf.compat.v1.pad_3/Pad/paddings", "op": "Const", "attr": {"dtype": {"type": "DT_INT32"}, "value": {"tensor": {"dtype": "DT_INT32", "tensorShape": {"dim": [{"size": "4"}, {"size": "2"}]}}}}}, {"name": "model_13/tf.nn.convolution_13/convolution/filter", "op": "Const", "attr": {"dtype": {"type": "DT_FLOAT"}, "value": {"tensor": {"dtype": "DT_FLOAT", "tensorShape": {"dim": [{"size": "3"}, {"size": "3"}, {"size": "64"}, {"size": "128"}]}}}}}, {"name": "model_13/tf.math.add_19/Add/y", "op": "Const", "attr": {"value": {"tensor": {"dtype": "DT_FLOAT", "tensorShape": {"dim": [{"size": "128"}]}}}, "dtype": {"type": "DT_FLOAT"}}}, {"name": "model_13/tf.nn.convolution_14/convolution/filter", "op": "Const", "attr": {"value": {"tensor": {"dtype": "DT_FLOAT", "tensorShape": {"dim": [{"size": "1"}, {"size": "1"}, {"size": "128"}, {"size": "128"}]}}}, "dtype": {"type": "DT_FLOAT"}}}, {"name": "model_13/tf.math.add_20/Add/y", "op": "Const", "attr": {"dtype": {"type": "DT_FLOAT"}, "value": {"tensor": {"dtype": "DT_FLOAT", "tensorShape": {"dim": [{"size": "128"}]}}}}}, {"name": "model_13/tf.strided_slice_5/ones_like/tensor", "op": "Const", "attr": {"dtype": {"type": "DT_INT64"}, "value": {"tensor": {"dtype": "DT_INT64", "tensorShape": {"dim": [{"size": "4"}]}}}}}, {"name": "model_13/tf.strided_slice_5/StridedSlice/end", "op": "Const", "attr": {"dtype": {"type": "DT_INT64"}, "value": {"tensor": {"dtype": "DT_INT64", "tensorShape": {"dim": [{"size": "4"}]}}}}}, {"name": "model_13/tf.strided_slice_5/ones_like", "op": "Const", "attr": {"dtype": {"type": "DT_INT64"}, "value": {"tensor": {"dtype": "DT_INT64", "tensorShape": {"dim": [{"size": "4"}]}}}}}, {"name": "model_13/tf.nn.convolution_15/convolution/filter", "op": "Const", "attr": {"dtype": {"type": "DT_FLOAT"}, "value": {"tensor": {"dtype": "DT_FLOAT", "tensorShape": {"dim": [{"size": "3"}, {"size": "3"}, {"size": "64"}, {"size": "64"}]}}}}}, {"name": "model_13/tf.math.add_21/Add/y", "op": "Const", "attr": {"value": {"tensor": {"dtype": "DT_FLOAT", "tensorShape": {"dim": [{"size": "64"}]}}}, "dtype": {"type": "DT_FLOAT"}}}, {"name": "model_13/tf.nn.convolution_16/convolution/filter", "op": "Const", "attr": {"value": {"tensor": {"dtype": "DT_FLOAT", "tensorShape": {"dim": [{"size": "3"}, {"size": "3"}, {"size": "64"}, {"size": "64"}]}}}, "dtype": {"type": "DT_FLOAT"}}}, {"name": "model_13/tf.math.add_22/Add/y", "op": "Const", "attr": {"dtype": {"type": "DT_FLOAT"}, "value": {"tensor": {"dtype": "DT_FLOAT", "tensorShape": {"dim": [{"size": "64"}]}}}}}, {"name": "model_13/tf.nn.convolution_17/convolution/filter", "op": "Const", "attr": {"dtype": {"type": "DT_FLOAT"}, "value": {"tensor": {"dtype": "DT_FLOAT", "tensorShape": {"dim": [{"size": "3"}, {"size": "3"}, {"size": "64"}, {"size": "64"}]}}}}}, {"name": "model_13/tf.math.add_25/Add/y", "op": "Const", "attr": {"value": {"tensor": {"dtype": "DT_FLOAT", "tensorShape": {"dim": [{"size": "64"}]}}}, "dtype": {"type": "DT_FLOAT"}}}, {"name": "model_13/tf.nn.convolution_18/convolution/filter", "op": "Const", "attr": {"dtype": {"type": "DT_FLOAT"}, "value": {"tensor": {"dtype": "DT_FLOAT", "tensorShape": {"dim": [{"size": "3"}, {"size": "3"}, {"size": "64"}, {"size": "64"}]}}}}}, {"name": "model_13/tf.math.add_26/Add/y", "op": "Const", "attr": {"dtype": {"type": "DT_FLOAT"}, "value": {"tensor": {"dtype": "DT_FLOAT", "tensorShape": {"dim": [{"size": "64"}]}}}}}, {"name": "model_13/tf.concat_2/concat/axis", "op": "Const", "attr": {"value": {"tensor": {"dtype": "DT_INT32", "tensorShape": {}}}, "dtype": {"type": "DT_INT32"}}}, {"name": "model_13/tf.nn.convolution_19/convolution/filter", "op": "Const", "attr": {"dtype": {"type": "DT_FLOAT"}, "value": {"tensor": {"dtype": "DT_FLOAT", "tensorShape": {"dim": [{"size": "1"}, {"size": "1"}, {"size": "256"}, {"size": "128"}]}}}}}, {"name": "model_13/tf.math.add_29/Add/y", "op": "Const", "attr": {"dtype": {"type": "DT_FLOAT"}, "value": {"tensor": {"dtype": "DT_FLOAT", "tensorShape": {"dim": [{"size": "128"}]}}}}}, {"name": "model_13/tf.compat.v1.pad_4/Pad/paddings", "op": "Const", "attr": {"value": {"tensor": {"dtype": "DT_INT32", "tensorShape": {"dim": [{"size": "4"}, {"size": "2"}]}}}, "dtype": {"type": "DT_INT32"}}}, {"name": "model_13/tf.nn.convolution_20/convolution/filter", "op": "Const", "attr": {"dtype": {"type": "DT_FLOAT"}, "value": {"tensor": {"dtype": "DT_FLOAT", "tensorShape": {"dim": [{"size": "3"}, {"size": "3"}, {"size": "128"}, {"size": "256"}]}}}}}, {"name": "model_13/tf.math.add_30/Add/y", "op": "Const", "attr": {"value": {"tensor": {"dtype": "DT_FLOAT", "tensorShape": {"dim": [{"size": "256"}]}}}, "dtype": {"type": "DT_FLOAT"}}}, {"name": "model_13/tf.nn.convolution_21/convolution/filter", "op": "Const", "attr": {"value": {"tensor": {"dtype": "DT_FLOAT", "tensorShape": {"dim": [{"size": "1"}, {"size": "1"}, {"size": "256"}, {"size": "256"}]}}}, "dtype": {"type": "DT_FLOAT"}}}, {"name": "model_13/tf.math.add_31/Add/y", "op": "Const", "attr": {"value": {"tensor": {"dtype": "DT_FLOAT", "tensorShape": {"dim": [{"size": "256"}]}}}, "dtype": {"type": "DT_FLOAT"}}}, {"name": "model_13/tf.strided_slice_7/ones_like/tensor", "op": "Const", "attr": {"value": {"tensor": {"dtype": "DT_INT64", "tensorShape": {"dim": [{"size": "4"}]}}}, "dtype": {"type": "DT_INT64"}}}, {"name": "model_13/tf.strided_slice_7/StridedSlice/end", "op": "Const", "attr": {"dtype": {"type": "DT_INT64"}, "value": {"tensor": {"dtype": "DT_INT64", "tensorShape": {"dim": [{"size": "4"}]}}}}}, {"name": "model_13/tf.strided_slice_7/ones_like", "op": "Const", "attr": {"value": {"tensor": {"dtype": "DT_INT64", "tensorShape": {"dim": [{"size": "4"}]}}}, "dtype": {"type": "DT_INT64"}}}, {"name": "model_13/tf.nn.convolution_22/convolution/filter", "op": "Const", "attr": {"value": {"tensor": {"dtype": "DT_FLOAT", "tensorShape": {"dim": [{"size": "3"}, {"size": "3"}, {"size": "128"}, {"size": "128"}]}}}, "dtype": {"type": "DT_FLOAT"}}}, {"name": "model_13/tf.math.add_32/Add/y", "op": "Const", "attr": {"dtype": {"type": "DT_FLOAT"}, "value": {"tensor": {"dtype": "DT_FLOAT", "tensorShape": {"dim": [{"size": "128"}]}}}}}, {"name": "model_13/tf.nn.convolution_23/convolution/filter", "op": "Const", "attr": {"dtype": {"type": "DT_FLOAT"}, "value": {"tensor": {"dtype": "DT_FLOAT", "tensorShape": {"dim": [{"size": "3"}, {"size": "3"}, {"size": "128"}, {"size": "128"}]}}}}}, {"name": "model_13/tf.math.add_33/Add/y", "op": "Const", "attr": {"value": {"tensor": {"dtype": "DT_FLOAT", "tensorShape": {"dim": [{"size": "128"}]}}}, "dtype": {"type": "DT_FLOAT"}}}, {"name": "model_13/tf.concat_3/concat/axis", "op": "Const", "attr": {"value": {"tensor": {"dtype": "DT_INT32", "tensorShape": {}}}, "dtype": {"type": "DT_INT32"}}}, {"name": "model_13/tf.nn.convolution_24/convolution/filter", "op": "Const", "attr": {"dtype": {"type": "DT_FLOAT"}, "value": {"tensor": {"dtype": "DT_FLOAT", "tensorShape": {"dim": [{"size": "1"}, {"size": "1"}, {"size": "384"}, {"size": "256"}]}}}}}, {"name": "model_13/tf.math.add_36/Add/y", "op": "Const", "attr": {"value": {"tensor": {"dtype": "DT_FLOAT", "tensorShape": {"dim": [{"size": "256"}]}}}, "dtype": {"type": "DT_FLOAT"}}}, {"name": "model_13/tf.nn.convolution_25/convolution/filter", "op": "Const", "attr": {"value": {"tensor": {"dtype": "DT_FLOAT", "tensorShape": {"dim": [{"size": "1"}, {"size": "1"}, {"size": "256"}, {"size": "128"}]}}}, "dtype": {"type": "DT_FLOAT"}}}, {"name": "model_13/tf.math.add_37/Add/y", "op": "Const", "attr": {"value": {"tensor": {"dtype": "DT_FLOAT", "tensorShape": {"dim": [{"size": "128"}]}}}, "dtype": {"type": "DT_FLOAT"}}}, {"name": "model_13/tf.concat_4/concat/axis", "op": "Const", "attr": {"value": {"tensor": {"dtype": "DT_INT32", "tensorShape": {}}}, "dtype": {"type": "DT_INT32"}}}, {"name": "model_13/tf.nn.convolution_26/convolution/filter", "op": "Const", "attr": {"dtype": {"type": "DT_FLOAT"}, "value": {"tensor": {"dtype": "DT_FLOAT", "tensorShape": {"dim": [{"size": "1"}, {"size": "1"}, {"size": "512"}, {"size": "256"}]}}}}}, {"name": "model_13/tf.math.add_38/Add/y", "op": "Const", "attr": {"dtype": {"type": "DT_FLOAT"}, "value": {"tensor": {"dtype": "DT_FLOAT", "tensorShape": {"dim": [{"size": "256"}]}}}}}, {"name": "model_13/tf.concat_12/concat/axis", "op": "Const", "attr": {"value": {"tensor": {"dtype": "DT_INT32", "tensorShape": {}}}, "dtype": {"type": "DT_INT32"}}}, {"name": "model_13/tf.nn.convolution_51/convolution/filter", "op": "Const", "attr": {"value": {"tensor": {"dtype": "DT_FLOAT", "tensorShape": {"dim": [{"size": "1"}, {"size": "1"}, {"size": "384"}, {"size": "256"}]}}}, "dtype": {"type": "DT_FLOAT"}}}, {"name": "model_13/tf.math.add_63/Add/y", "op": "Const", "attr": {"value": {"tensor": {"dtype": "DT_FLOAT", "tensorShape": {"dim": [{"size": "256"}]}}}, "dtype": {"type": "DT_FLOAT"}}}, {"name": "model_13/tf.strided_slice_15/ones_like/tensor", "op": "Const", "attr": {"value": {"tensor": {"dtype": "DT_INT64", "tensorShape": {"dim": [{"size": "4"}]}}}, "dtype": {"type": "DT_INT64"}}}, {"name": "model_13/tf.strided_slice_15/StridedSlice/end", "op": "Const", "attr": {"dtype": {"type": "DT_INT64"}, "value": {"tensor": {"dtype": "DT_INT64", "tensorShape": {"dim": [{"size": "4"}]}}}}}, {"name": "model_13/tf.strided_slice_15/ones_like", "op": "Const", "attr": {"dtype": {"type": "DT_INT64"}, "value": {"tensor": {"dtype": "DT_INT64", "tensorShape": {"dim": [{"size": "4"}]}}}}}, {"name": "model_13/tf.nn.convolution_54/convolution/filter", "op": "Const", "attr": {"dtype": {"type": "DT_FLOAT"}, "value": {"tensor": {"dtype": "DT_FLOAT", "tensorShape": {"dim": [{"size": "3"}, {"size": "3"}, {"size": "128"}, {"size": "128"}]}}}}}, {"name": "model_13/tf.math.add_66/Add/y", "op": "Const", "attr": {"value": {"tensor": {"dtype": "DT_FLOAT", "tensorShape": {"dim": [{"size": "128"}]}}}, "dtype": {"type": "DT_FLOAT"}}}, {"name": "model_13/tf.nn.convolution_55/convolution/filter", "op": "Const", "attr": {"dtype": {"type": "DT_FLOAT"}, "value": {"tensor": {"dtype": "DT_FLOAT", "tensorShape": {"dim": [{"size": "3"}, {"size": "3"}, {"size": "128"}, {"size": "128"}]}}}}}, {"name": "model_13/tf.math.add_67/Add/y", "op": "Const", "attr": {"value": {"tensor": {"dtype": "DT_FLOAT", "tensorShape": {"dim": [{"size": "128"}]}}}, "dtype": {"type": "DT_FLOAT"}}}, {"name": "model_13/tf.concat_14/concat/axis", "op": "Const", "attr": {"dtype": {"type": "DT_INT32"}, "value": {"tensor": {"dtype": "DT_INT32", "tensorShape": {}}}}}, {"name": "model_13/tf.nn.convolution_56/convolution/filter", "op": "Const", "attr": {"dtype": {"type": "DT_FLOAT"}, "value": {"tensor": {"dtype": "DT_FLOAT", "tensorShape": {"dim": [{"size": "1"}, {"size": "1"}, {"size": "384"}, {"size": "256"}]}}}}}, {"name": "model_13/tf.math.add_68/Add/y", "op": "Const", "attr": {"dtype": {"type": "DT_FLOAT"}, "value": {"tensor": {"dtype": "DT_FLOAT", "tensorShape": {"dim": [{"size": "256"}]}}}}}, {"name": "model_13/tf.nn.convolution_58/convolution/filter", "op": "Const", "attr": {"dtype": {"type": "DT_FLOAT"}, "value": {"tensor": {"dtype": "DT_FLOAT", "tensorShape": {"dim": [{"size": "3"}, {"size": "3"}, {"size": "256"}, {"size": "64"}]}}}}}, {"name": "model_13/tf.math.add_70/Add/y", "op": "Const", "attr": {"value": {"tensor": {"dtype": "DT_FLOAT", "tensorShape": {"dim": [{"size": "64"}]}}}, "dtype": {"type": "DT_FLOAT"}}}, {"name": "model_13/tf.nn.convolution_60/convolution/filter", "op": "Const", "attr": {"dtype": {"type": "DT_FLOAT"}, "value": {"tensor": {"dtype": "DT_FLOAT", "tensorShape": {"dim": [{"size": "3"}, {"size": "3"}, {"size": "64"}, {"size": "64"}]}}}}}, {"name": "model_13/tf.math.add_72/Add/y", "op": "Const", "attr": {"value": {"tensor": {"dtype": "DT_FLOAT", "tensorShape": {"dim": [{"size": "64"}]}}}, "dtype": {"type": "DT_FLOAT"}}}, {"name": "model_13/tf.nn.convolution_62/convolution/filter", "op": "Const", "attr": {"value": {"tensor": {"dtype": "DT_FLOAT", "tensorShape": {"dim": [{"size": "1"}, {"size": "1"}, {"size": "64"}, {"size": "1"}]}}}, "dtype": {"type": "DT_FLOAT"}}}, {"name": "model_13/tf.math.add_74/Add/y", "op": "Const", "attr": {"dtype": {"type": "DT_FLOAT"}, "value": {"tensor": {"dtype": "DT_FLOAT", "tensorShape": {"dim": [{"size": "1"}]}}}}}, {"name": "model_13/tf.concat_15/concat/axis", "op": "Const", "attr": {"dtype": {"type": "DT_INT32"}, "value": {"tensor": {"dtype": "DT_INT32", "tensorShape": {}}}}}, {"name": "model_13/tf.compat.v1.transpose_12/transpose/perm", "op": "Const", "attr": {"dtype": {"type": "DT_INT32"}, "value": {"tensor": {"dtype": "DT_INT32", "tensorShape": {"dim": [{"size": "4"}]}}}}}, {"name": "model_13/tf.reshape_8/Reshape/shape", "op": "Const", "attr": {"value": {"tensor": {"dtype": "DT_INT32", "tensorShape": {"dim": [{"size": "3"}]}}}, "dtype": {"type": "DT_INT32"}}}, {"name": "model_13/tf.concat_16/concat/axis", "op": "Const", "attr": {"value": {"tensor": {"dtype": "DT_INT32", "tensorShape": {}}}, "dtype": {"type": "DT_INT32"}}}, {"name": "model_13/tf.strided_slice_17/StridedSlice/begin", "op": "Const", "attr": {"value": {"tensor": {"dtype": "DT_INT64", "tensorShape": {"dim": [{"size": "3"}]}}}, "dtype": {"type": "DT_INT64"}}}, {"name": "model_13/tf.strided_slice_17/StridedSlice/end", "op": "Const", "attr": {"value": {"tensor": {"dtype": "DT_INT64", "tensorShape": {"dim": [{"size": "3"}]}}}, "dtype": {"type": "DT_INT64"}}}, {"name": "model_13/tf.strided_slice_17/StridedSlice/strides", "op": "Const", "attr": {"value": {"tensor": {"dtype": "DT_INT64", "tensorShape": {"dim": [{"size": "3"}]}}}, "dtype": {"type": "DT_INT64"}}}, {"name": "model_13/output0/concat/axis", "op": "Const", "attr": {"dtype": {"type": "DT_INT32"}, "value": {"tensor": {"dtype": "DT_INT32", "tensorShape": {}}}}}, {"name": "x", "op": "Placeholder", "attr": {"shape": {"shape": {"dim": [{"size": "1"}, {"size": "320"}, {"size": "320"}, {"size": "3"}]}}, "dtype": {"type": "DT_FLOAT"}}}, {"name": "model_13/tf.compat.v1.pad/Pad", "op": "Pad", "input": ["x", "model_13/tf.compat.v1.pad/Pad/paddings"], "attr": {"Tpaddings": {"type": "DT_INT32"}, "T": {"type": "DT_FLOAT"}}}, {"name": "model_13/tf.math.add/Add", "op": "_FusedConv2D", "input": ["model_13/tf.compat.v1.pad/Pad", "model_13/tf.nn.convolution/convolution/filter", "model_13/tf.math.add/Add/y"], "device": "/device:CPU:0", "attr": {"explicit_paddings": {"list": {}}, "epsilon": {"f": 0.0}, "num_host_args": {"i": "0"}, "T": {"type": "DT_FLOAT"}, "strides": {"list": {"i": ["1", "2", "2", "1"]}}, "fused_ops": {"list": {"s": ["Qmlhc0FkZA=="]}}, "num_args": {"i": "1"}, "data_format": {"s": "TkhXQw=="}, "leakyrelu_alpha": {"f": 0.2}, "filter_format": {"s": "SFdJTw=="}, "padding": {"s": "VkFMSUQ="}, "TArgs": {"list": {"type": ["DT_FLOAT"]}}, "use_cudnn_on_gpu": {"b": true}, "dilations": {"list": {"i": ["1", "1", "1", "1"]}}}}, {"name": "model_13/tf.math.sigmoid/Sigmoid", "op": "Sigmoid", "input": ["model_13/tf.math.add/Add"], "attr": {"T": {"type": "DT_FLOAT"}}}, {"name": "model_13/tf.math.multiply_3/Mul", "op": "Mul", "input": ["model_13/tf.math.add/Add", "model_13/tf.math.sigmoid/Sigmoid"], "attr": {"T": {"type": "DT_FLOAT"}}}, {"name": "model_13/tf.compat.v1.pad_1/Pad", "op": "Pad", "input": ["model_13/tf.math.multiply_3/Mul", "model_13/tf.compat.v1.pad_1/Pad/paddings"], "attr": {"T": {"type": "DT_FLOAT"}, "Tpaddings": {"type": "DT_INT32"}}}, {"name": "model_13/tf.math.add_1/Add", "op": "_FusedConv2D", "input": ["model_13/tf.compat.v1.pad_1/Pad", "model_13/tf.nn.convolution_1/convolution/filter", "model_13/tf.math.add_1/Add/y"], "device": "/device:CPU:0", "attr": {"fused_ops": {"list": {"s": ["Qmlhc0FkZA=="]}}, "strides": {"list": {"i": ["1", "2", "2", "1"]}}, "TArgs": {"list": {"type": ["DT_FLOAT"]}}, "num_args": {"i": "1"}, "leakyrelu_alpha": {"f": 0.2}, "use_cudnn_on_gpu": {"b": true}, "filter_format": {"s": "SFdJTw=="}, "dilations": {"list": {"i": ["1", "1", "1", "1"]}}, "padding": {"s": "VkFMSUQ="}, "data_format": {"s": "TkhXQw=="}, "num_host_args": {"i": "0"}, "T": {"type": "DT_FLOAT"}, "epsilon": {"f": 0.0}, "explicit_paddings": {"list": {}}}}, {"name": "model_13/tf.math.sigmoid_1/Sigmoid", "op": "Sigmoid", "input": ["model_13/tf.math.add_1/Add"], "attr": {"T": {"type": "DT_FLOAT"}}}, {"name": "model_13/tf.math.multiply_7/Mul", "op": "Mul", "input": ["model_13/tf.math.add_1/Add", "model_13/tf.math.sigmoid_1/Sigmoid"], "attr": {"T": {"type": "DT_FLOAT"}}}, {"name": "model_13/tf.math.add_2/Add", "op": "_FusedConv2D", "input": ["model_13/tf.math.multiply_7/Mul", "model_13/tf.nn.convolution_2/convolution/filter", "model_13/tf.math.add_2/Add/y"], "device": "/device:CPU:0", "attr": {"padding": {"s": "U0FNRQ=="}, "data_format": {"s": "TkhXQw=="}, "epsilon": {"f": 0.0}, "TArgs": {"list": {"type": ["DT_FLOAT"]}}, "use_cudnn_on_gpu": {"b": true}, "num_host_args": {"i": "0"}, "leakyrelu_alpha": {"f": 0.2}, "dilations": {"list": {"i": ["1", "1", "1", "1"]}}, "fused_ops": {"list": {"s": ["Qmlhc0FkZA=="]}}, "explicit_paddings": {"list": {}}, "num_args": {"i": "1"}, "filter_format": {"s": "SFdJTw=="}, "T": {"type": "DT_FLOAT"}, "strides": {"list": {"i": ["1", "1", "1", "1"]}}}}, {"name": "model_13/tf.math.sigmoid_2/Sigmoid", "op": "Sigmoid", "input": ["model_13/tf.math.add_2/Add"], "attr": {"T": {"type": "DT_FLOAT"}}}, {"name": "model_13/tf.math.multiply_11/Mul", "op": "Mul", "input": ["model_13/tf.math.add_2/Add", "model_13/tf.math.sigmoid_2/Sigmoid"], "attr": {"T": {"type": "DT_FLOAT"}}}, {"name": "model_13/tf.strided_slice/StridedSlice", "op": "StridedSlice", "input": ["model_13/tf.math.multiply_11/Mul", "model_13/tf.strided_slice/ones_like/tensor", "model_13/tf.strided_slice/StridedSlice/end", "model_13/tf.strided_slice/ones_like"], "attr": {"ellipsis_mask": {"i": "0"}, "T": {"type": "DT_FLOAT"}, "new_axis_mask": {"i": "0"}, "Index": {"type": "DT_INT64"}, "begin_mask": {"i": "15"}, "end_mask": {"i": "7"}, "shrink_axis_mask": {"i": "0"}}}, {"name": "model_13/tf.strided_slice_1/StridedSlice", "op": "StridedSlice", "input": ["model_13/tf.math.multiply_11/Mul", "model_13/tf.strided_slice_1/ones_like/tensor", "model_13/tf.strided_slice_1/StridedSlice/end", "model_13/tf.strided_slice_1/ones_like"], "attr": {"Index": {"type": "DT_INT64"}, "end_mask": {"i": "7"}, "new_axis_mask": {"i": "0"}, "shrink_axis_mask": {"i": "0"}, "T": {"type": "DT_FLOAT"}, "begin_mask": {"i": "7"}, "ellipsis_mask": {"i": "0"}}}, {"name": "model_13/tf.math.add_3/Add", "op": "_FusedConv2D", "input": ["model_13/tf.strided_slice_1/StridedSlice", "model_13/tf.nn.convolution_3/convolution/filter", "model_13/tf.math.add_3/Add/y"], "device": "/device:CPU:0", "attr": {"epsilon": {"f": 0.0}, "num_host_args": {"i": "0"}, "use_cudnn_on_gpu": {"b": true}, "T": {"type": "DT_FLOAT"}, "explicit_paddings": {"list": {}}, "filter_format": {"s": "SFdJTw=="}, "strides": {"list": {"i": ["1", "1", "1", "1"]}}, "fused_ops": {"list": {"s": ["Qmlhc0FkZA=="]}}, "padding": {"s": "U0FNRQ=="}, "data_format": {"s": "TkhXQw=="}, "dilations": {"list": {"i": ["1", "1", "1", "1"]}}, "TArgs": {"list": {"type": ["DT_FLOAT"]}}, "leakyrelu_alpha": {"f": 0.2}, "num_args": {"i": "1"}}}, {"name": "model_13/tf.math.sigmoid_3/Sigmoid", "op": "Sigmoid", "input": ["model_13/tf.math.add_3/Add"], "attr": {"T": {"type": "DT_FLOAT"}}}, {"name": "model_13/tf.math.multiply_15/Mul", "op": "Mul", "input": ["model_13/tf.math.add_3/Add", "model_13/tf.math.sigmoid_3/Sigmoid"], "attr": {"T": {"type": "DT_FLOAT"}}}, {"name": "model_13/tf.math.add_4/Add", "op": "_FusedConv2D", "input": ["model_13/tf.math.multiply_15/Mul", "model_13/tf.nn.convolution_4/convolution/filter", "model_13/tf.math.add_4/Add/y"], "device": "/device:CPU:0", "attr": {"T": {"type": "DT_FLOAT"}, "padding": {"s": "U0FNRQ=="}, "dilations": {"list": {"i": ["1", "1", "1", "1"]}}, "epsilon": {"f": 0.0}, "strides": {"list": {"i": ["1", "1", "1", "1"]}}, "num_host_args": {"i": "0"}, "leakyrelu_alpha": {"f": 0.2}, "num_args": {"i": "1"}, "use_cudnn_on_gpu": {"b": true}, "data_format": {"s": "TkhXQw=="}, "filter_format": {"s": "SFdJTw=="}, "TArgs": {"list": {"type": ["DT_FLOAT"]}}, "fused_ops": {"list": {"s": ["Qmlhc0FkZA=="]}}, "explicit_paddings": {"list": {}}}}, {"name": "model_13/tf.math.sigmoid_4/Sigmoid", "op": "Sigmoid", "input": ["model_13/tf.math.add_4/Add"], "attr": {"T": {"type": "DT_FLOAT"}}}, {"name": "model_13/tf.math.multiply_19/Mul", "op": "Mul", "input": ["model_13/tf.math.add_4/Add", "model_13/tf.math.sigmoid_4/Sigmoid"], "attr": {"T": {"type": "DT_FLOAT"}}}, {"name": "model_13/tf.math.add_6/Add", "op": "AddV2", "input": ["model_13/tf.strided_slice_1/StridedSlice", "model_13/tf.math.multiply_19/Mul"], "attr": {"T": {"type": "DT_FLOAT"}}}, {"name": "model_13/tf.concat/concat", "op": "ConcatV2", "input": ["model_13/tf.strided_slice/StridedSlice", "model_13/tf.strided_slice_1/StridedSlice", "model_13/tf.math.add_6/Add", "model_13/tf.concat/concat/axis"], "attr": {"N": {"i": "3"}, "T": {"type": "DT_FLOAT"}, "Tidx": {"type": "DT_INT32"}}}, {"name": "model_13/tf.math.add_7/Add", "op": "_FusedConv2D", "input": ["model_13/tf.concat/concat", "model_13/tf.nn.convolution_5/convolution/filter", "model_13/tf.math.add_7/Add/y"], "device": "/device:CPU:0", "attr": {"num_host_args": {"i": "0"}, "strides": {"list": {"i": ["1", "1", "1", "1"]}}, "epsilon": {"f": 0.0}, "leakyrelu_alpha": {"f": 0.2}, "use_cudnn_on_gpu": {"b": true}, "T": {"type": "DT_FLOAT"}, "padding": {"s": "U0FNRQ=="}, "explicit_paddings": {"list": {}}, "TArgs": {"list": {"type": ["DT_FLOAT"]}}, "filter_format": {"s": "SFdJTw=="}, "dilations": {"list": {"i": ["1", "1", "1", "1"]}}, "num_args": {"i": "1"}, "fused_ops": {"list": {"s": ["Qmlhc0FkZA=="]}}, "data_format": {"s": "TkhXQw=="}}}, {"name": "model_13/tf.math.sigmoid_5/Sigmoid", "op": "Sigmoid", "input": ["model_13/tf.math.add_7/Add"], "attr": {"T": {"type": "DT_FLOAT"}}}, {"name": "model_13/tf.math.multiply_25/Mul", "op": "Mul", "input": ["model_13/tf.math.add_7/Add", "model_13/tf.math.sigmoid_5/Sigmoid"], "attr": {"T": {"type": "DT_FLOAT"}}}, {"name": "model_13/tf.compat.v1.pad_2/Pad", "op": "Pad", "input": ["model_13/tf.math.multiply_25/Mul", "model_13/tf.compat.v1.pad_2/Pad/paddings"], "attr": {"T": {"type": "DT_FLOAT"}, "Tpaddings": {"type": "DT_INT32"}}}, {"name": "model_13/tf.math.add_8/Add", "op": "_FusedConv2D", "input": ["model_13/tf.compat.v1.pad_2/Pad", "model_13/tf.nn.convolution_6/convolution/filter", "model_13/tf.math.add_8/Add/y"], "device": "/device:CPU:0", "attr": {"padding": {"s": "VkFMSUQ="}, "strides": {"list": {"i": ["1", "2", "2", "1"]}}, "dilations": {"list": {"i": ["1", "1", "1", "1"]}}, "use_cudnn_on_gpu": {"b": true}, "TArgs": {"list": {"type": ["DT_FLOAT"]}}, "num_host_args": {"i": "0"}, "data_format": {"s": "TkhXQw=="}, "num_args": {"i": "1"}, "filter_format": {"s": "SFdJTw=="}, "explicit_paddings": {"list": {}}, "T": {"type": "DT_FLOAT"}, "fused_ops": {"list": {"s": ["Qmlhc0FkZA=="]}}, "epsilon": {"f": 0.0}, "leakyrelu_alpha": {"f": 0.2}}}, {"name": "model_13/tf.math.sigmoid_6/Sigmoid", "op": "Sigmoid", "input": ["model_13/tf.math.add_8/Add"], "attr": {"T": {"type": "DT_FLOAT"}}}, {"name": "model_13/tf.math.multiply_29/Mul", "op": "Mul", "input": ["model_13/tf.math.add_8/Add", "model_13/tf.math.sigmoid_6/Sigmoid"], "attr": {"T": {"type": "DT_FLOAT"}}}, {"name": "model_13/tf.math.add_9/Add", "op": "_FusedConv2D", "input": ["model_13/tf.math.multiply_29/Mul", "model_13/tf.nn.convolution_7/convolution/filter", "model_13/tf.math.add_9/Add/y"], "device": "/device:CPU:0", "attr": {"dilations": {"list": {"i": ["1", "1", "1", "1"]}}, "strides": {"list": {"i": ["1", "1", "1", "1"]}}, "fused_ops": {"list": {"s": ["Qmlhc0FkZA=="]}}, "use_cudnn_on_gpu": {"b": true}, "data_format": {"s": "TkhXQw=="}, "T": {"type": "DT_FLOAT"}, "padding": {"s": "U0FNRQ=="}, "TArgs": {"list": {"type": ["DT_FLOAT"]}}, "num_args": {"i": "1"}, "explicit_paddings": {"list": {}}, "num_host_args": {"i": "0"}, "epsilon": {"f": 0.0}, "leakyrelu_alpha": {"f": 0.2}, "filter_format": {"s": "SFdJTw=="}}}, {"name": "model_13/tf.math.sigmoid_7/Sigmoid", "op": "Sigmoid", "input": ["model_13/tf.math.add_9/Add"], "attr": {"T": {"type": "DT_FLOAT"}}}, {"name": "model_13/tf.math.multiply_33/Mul", "op": "Mul", "input": ["model_13/tf.math.add_9/Add", "model_13/tf.math.sigmoid_7/Sigmoid"], "attr": {"T": {"type": "DT_FLOAT"}}}, {"name": "model_13/tf.strided_slice_2/StridedSlice", "op": "StridedSlice", "input": ["model_13/tf.math.multiply_33/Mul", "model_13/tf.strided_slice_2/ones_like/tensor", "model_13/tf.strided_slice_2/StridedSlice/end", "model_13/tf.strided_slice_2/ones_like"], "attr": {"begin_mask": {"i": "15"}, "shrink_axis_mask": {"i": "0"}, "ellipsis_mask": {"i": "0"}, "Index": {"type": "DT_INT64"}, "end_mask": {"i": "7"}, "new_axis_mask": {"i": "0"}, "T": {"type": "DT_FLOAT"}}}, {"name": "model_13/tf.strided_slice_3/StridedSlice", "op": "StridedSlice", "input": ["model_13/tf.math.multiply_33/Mul", "model_13/tf.strided_slice_3/ones_like/tensor", "model_13/tf.strided_slice_3/StridedSlice/end", "model_13/tf.strided_slice_3/ones_like"], "attr": {"shrink_axis_mask": {"i": "0"}, "T": {"type": "DT_FLOAT"}, "Index": {"type": "DT_INT64"}, "begin_mask": {"i": "7"}, "ellipsis_mask": {"i": "0"}, "end_mask": {"i": "7"}, "new_axis_mask": {"i": "0"}}}, {"name": "model_13/tf.math.add_10/Add", "op": "_FusedConv2D", "input": ["model_13/tf.strided_slice_3/StridedSlice", "model_13/tf.nn.convolution_8/convolution/filter", "model_13/tf.math.add_10/Add/y"], "device": "/device:CPU:0", "attr": {"padding": {"s": "U0FNRQ=="}, "filter_format": {"s": "SFdJTw=="}, "strides": {"list": {"i": ["1", "1", "1", "1"]}}, "leakyrelu_alpha": {"f": 0.2}, "fused_ops": {"list": {"s": ["Qmlhc0FkZA=="]}}, "TArgs": {"list": {"type": ["DT_FLOAT"]}}, "dilations": {"list": {"i": ["1", "1", "1", "1"]}}, "epsilon": {"f": 0.0}, "num_host_args": {"i": "0"}, "explicit_paddings": {"list": {}}, "num_args": {"i": "1"}, "use_cudnn_on_gpu": {"b": true}, "data_format": {"s": "TkhXQw=="}, "T": {"type": "DT_FLOAT"}}}, {"name": "model_13/tf.math.sigmoid_8/Sigmoid", "op": "Sigmoid", "input": ["model_13/tf.math.add_10/Add"], "attr": {"T": {"type": "DT_FLOAT"}}}, {"name": "model_13/tf.math.multiply_37/Mul", "op": "Mul", "input": ["model_13/tf.math.add_10/Add", "model_13/tf.math.sigmoid_8/Sigmoid"], "attr": {"T": {"type": "DT_FLOAT"}}}, {"name": "model_13/tf.math.add_11/Add", "op": "_FusedConv2D", "input": ["model_13/tf.math.multiply_37/Mul", "model_13/tf.nn.convolution_9/convolution/filter", "model_13/tf.math.add_11/Add/y"], "device": "/device:CPU:0", "attr": {"use_cudnn_on_gpu": {"b": true}, "leakyrelu_alpha": {"f": 0.2}, "padding": {"s": "U0FNRQ=="}, "filter_format": {"s": "SFdJTw=="}, "T": {"type": "DT_FLOAT"}, "TArgs": {"list": {"type": ["DT_FLOAT"]}}, "data_format": {"s": "TkhXQw=="}, "strides": {"list": {"i": ["1", "1", "1", "1"]}}, "num_host_args": {"i": "0"}, "dilations": {"list": {"i": ["1", "1", "1", "1"]}}, "epsilon": {"f": 0.0}, "num_args": {"i": "1"}, "explicit_paddings": {"list": {}}, "fused_ops": {"list": {"s": ["Qmlhc0FkZA=="]}}}}, {"name": "model_13/tf.math.sigmoid_9/Sigmoid", "op": "Sigmoid", "input": ["model_13/tf.math.add_11/Add"], "attr": {"T": {"type": "DT_FLOAT"}}}, {"name": "model_13/tf.math.multiply_41/Mul", "op": "Mul", "input": ["model_13/tf.math.add_11/Add", "model_13/tf.math.sigmoid_9/Sigmoid"], "attr": {"T": {"type": "DT_FLOAT"}}}, {"name": "model_13/tf.math.add_13/Add", "op": "AddV2", "input": ["model_13/tf.strided_slice_3/StridedSlice", "model_13/tf.math.multiply_41/Mul"], "attr": {"T": {"type": "DT_FLOAT"}}}, {"name": "model_13/tf.math.add_14/Add", "op": "_FusedConv2D", "input": ["model_13/tf.math.add_13/Add", "model_13/tf.nn.convolution_10/convolution/filter", "model_13/tf.math.add_14/Add/y"], "device": "/device:CPU:0", "attr": {"filter_format": {"s": "SFdJTw=="}, "leakyrelu_alpha": {"f": 0.2}, "epsilon": {"f": 0.0}, "dilations": {"list": {"i": ["1", "1", "1", "1"]}}, "T": {"type": "DT_FLOAT"}, "num_args": {"i": "1"}, "use_cudnn_on_gpu": {"b": true}, "data_format": {"s": "TkhXQw=="}, "padding": {"s": "U0FNRQ=="}, "num_host_args": {"i": "0"}, "explicit_paddings": {"list": {}}, "fused_ops": {"list": {"s": ["Qmlhc0FkZA=="]}}, "TArgs": {"list": {"type": ["DT_FLOAT"]}}, "strides": {"list": {"i": ["1", "1", "1", "1"]}}}}, {"name": "model_13/tf.math.sigmoid_10/Sigmoid", "op": "Sigmoid", "input": ["model_13/tf.math.add_14/Add"], "attr": {"T": {"type": "DT_FLOAT"}}}, {"name": "model_13/tf.math.multiply_47/Mul", "op": "Mul", "input": ["model_13/tf.math.add_14/Add", "model_13/tf.math.sigmoid_10/Sigmoid"], "attr": {"T": {"type": "DT_FLOAT"}}}, {"name": "model_13/tf.math.add_15/Add", "op": "_FusedConv2D", "input": ["model_13/tf.math.multiply_47/Mul", "model_13/tf.nn.convolution_11/convolution/filter", "model_13/tf.math.add_15/Add/y"], "device": "/device:CPU:0", "attr": {"num_host_args": {"i": "0"}, "filter_format": {"s": "SFdJTw=="}, "leakyrelu_alpha": {"f": 0.2}, "TArgs": {"list": {"type": ["DT_FLOAT"]}}, "fused_ops": {"list": {"s": ["Qmlhc0FkZA=="]}}, "num_args": {"i": "1"}, "use_cudnn_on_gpu": {"b": true}, "explicit_paddings": {"list": {}}, "epsilon": {"f": 0.0}, "padding": {"s": "U0FNRQ=="}, "strides": {"list": {"i": ["1", "1", "1", "1"]}}, "T": {"type": "DT_FLOAT"}, "data_format": {"s": "TkhXQw=="}, "dilations": {"list": {"i": ["1", "1", "1", "1"]}}}}, {"name": "model_13/tf.math.sigmoid_11/Sigmoid", "op": "Sigmoid", "input": ["model_13/tf.math.add_15/Add"], "attr": {"T": {"type": "DT_FLOAT"}}}, {"name": "model_13/tf.math.multiply_51/Mul", "op": "Mul", "input": ["model_13/tf.math.add_15/Add", "model_13/tf.math.sigmoid_11/Sigmoid"], "attr": {"T": {"type": "DT_FLOAT"}}}, {"name": "model_13/tf.math.add_17/Add", "op": "AddV2", "input": ["model_13/tf.math.add_13/Add", "model_13/tf.math.multiply_51/Mul"], "attr": {"T": {"type": "DT_FLOAT"}}}, {"name": "model_13/tf.concat_1/concat", "op": "ConcatV2", "input": ["model_13/tf.strided_slice_2/StridedSlice", "model_13/tf.strided_slice_3/StridedSlice", "model_13/tf.math.add_13/Add", "model_13/tf.math.add_17/Add", "model_13/tf.concat_1/concat/axis"], "attr": {"Tidx": {"type": "DT_INT32"}, "N": {"i": "4"}, "T": {"type": "DT_FLOAT"}}}, {"name": "model_13/tf.math.add_18/Add", "op": "_FusedConv2D", "input": ["model_13/tf.concat_1/concat", "model_13/tf.nn.convolution_12/convolution/filter", "model_13/tf.math.add_18/Add/y"], "device": "/device:CPU:0", "attr": {"num_host_args": {"i": "0"}, "fused_ops": {"list": {"s": ["Qmlhc0FkZA=="]}}, "explicit_paddings": {"list": {}}, "padding": {"s": "U0FNRQ=="}, "leakyrelu_alpha": {"f": 0.2}, "T": {"type": "DT_FLOAT"}, "strides": {"list": {"i": ["1", "1", "1", "1"]}}, "use_cudnn_on_gpu": {"b": true}, "epsilon": {"f": 0.0}, "filter_format": {"s": "SFdJTw=="}, "dilations": {"list": {"i": ["1", "1", "1", "1"]}}, "data_format": {"s": "TkhXQw=="}, "num_args": {"i": "1"}, "TArgs": {"list": {"type": ["DT_FLOAT"]}}}}, {"name": "model_13/tf.math.sigmoid_12/Sigmoid", "op": "Sigmoid", "input": ["model_13/tf.math.add_18/Add"], "attr": {"T": {"type": "DT_FLOAT"}}}, {"name": "model_13/tf.math.multiply_57/Mul", "op": "Mul", "input": ["model_13/tf.math.add_18/Add", "model_13/tf.math.sigmoid_12/Sigmoid"], "attr": {"T": {"type": "DT_FLOAT"}}}, {"name": "model_13/tf.compat.v1.pad_3/Pad", "op": "Pad", "input": ["model_13/tf.math.multiply_57/Mul", "model_13/tf.compat.v1.pad_3/Pad/paddings"], "attr": {"T": {"type": "DT_FLOAT"}, "Tpaddings": {"type": "DT_INT32"}}}, {"name": "model_13/tf.math.add_19/Add", "op": "_FusedConv2D", "input": ["model_13/tf.compat.v1.pad_3/Pad", "model_13/tf.nn.convolution_13/convolution/filter", "model_13/tf.math.add_19/Add/y"], "device": "/device:CPU:0", "attr": {"use_cudnn_on_gpu": {"b": true}, "data_format": {"s": "TkhXQw=="}, "filter_format": {"s": "SFdJTw=="}, "padding": {"s": "VkFMSUQ="}, "leakyrelu_alpha": {"f": 0.2}, "num_host_args": {"i": "0"}, "epsilon": {"f": 0.0}, "strides": {"list": {"i": ["1", "2", "2", "1"]}}, "dilations": {"list": {"i": ["1", "1", "1", "1"]}}, "T": {"type": "DT_FLOAT"}, "fused_ops": {"list": {"s": ["Qmlhc0FkZA=="]}}, "TArgs": {"list": {"type": ["DT_FLOAT"]}}, "num_args": {"i": "1"}, "explicit_paddings": {"list": {}}}}, {"name": "model_13/tf.math.sigmoid_13/Sigmoid", "op": "Sigmoid", "input": ["model_13/tf.math.add_19/Add"], "attr": {"T": {"type": "DT_FLOAT"}}}, {"name": "model_13/tf.math.multiply_61/Mul", "op": "Mul", "input": ["model_13/tf.math.add_19/Add", "model_13/tf.math.sigmoid_13/Sigmoid"], "attr": {"T": {"type": "DT_FLOAT"}}}, {"name": "model_13/tf.math.add_20/Add", "op": "_FusedConv2D", "input": ["model_13/tf.math.multiply_61/Mul", "model_13/tf.nn.convolution_14/convolution/filter", "model_13/tf.math.add_20/Add/y"], "device": "/device:CPU:0", "attr": {"num_host_args": {"i": "0"}, "explicit_paddings": {"list": {}}, "T": {"type": "DT_FLOAT"}, "epsilon": {"f": 0.0}, "data_format": {"s": "TkhXQw=="}, "fused_ops": {"list": {"s": ["Qmlhc0FkZA=="]}}, "num_args": {"i": "1"}, "strides": {"list": {"i": ["1", "1", "1", "1"]}}, "use_cudnn_on_gpu": {"b": true}, "padding": {"s": "U0FNRQ=="}, "leakyrelu_alpha": {"f": 0.2}, "dilations": {"list": {"i": ["1", "1", "1", "1"]}}, "TArgs": {"list": {"type": ["DT_FLOAT"]}}, "filter_format": {"s": "SFdJTw=="}}}, {"name": "model_13/tf.math.sigmoid_14/Sigmoid", "op": "Sigmoid", "input": ["model_13/tf.math.add_20/Add"], "attr": {"T": {"type": "DT_FLOAT"}}}, {"name": "model_13/tf.math.multiply_65/Mul", "op": "Mul", "input": ["model_13/tf.math.add_20/Add", "model_13/tf.math.sigmoid_14/Sigmoid"], "attr": {"T": {"type": "DT_FLOAT"}}}, {"name": "model_13/tf.strided_slice_4/StridedSlice", "op": "StridedSlice", "input": ["model_13/tf.math.multiply_65/Mul", "model_13/tf.strided_slice_4/ones_like/tensor", "model_13/tf.strided_slice_4/StridedSlice/end", "model_13/tf.strided_slice_4/ones_like"], "attr": {"Index": {"type": "DT_INT64"}, "shrink_axis_mask": {"i": "0"}, "begin_mask": {"i": "15"}, "end_mask": {"i": "7"}, "ellipsis_mask": {"i": "0"}, "new_axis_mask": {"i": "0"}, "T": {"type": "DT_FLOAT"}}}, {"name": "model_13/tf.strided_slice_5/StridedSlice", "op": "StridedSlice", "input": ["model_13/tf.math.multiply_65/Mul", "model_13/tf.strided_slice_5/ones_like/tensor", "model_13/tf.strided_slice_5/StridedSlice/end", "model_13/tf.strided_slice_5/ones_like"], "attr": {"T": {"type": "DT_FLOAT"}, "shrink_axis_mask": {"i": "0"}, "new_axis_mask": {"i": "0"}, "end_mask": {"i": "7"}, "begin_mask": {"i": "7"}, "ellipsis_mask": {"i": "0"}, "Index": {"type": "DT_INT64"}}}, {"name": "model_13/tf.math.add_21/Add", "op": "_FusedConv2D", "input": ["model_13/tf.strided_slice_5/StridedSlice", "model_13/tf.nn.convolution_15/convolution/filter", "model_13/tf.math.add_21/Add/y"], "device": "/device:CPU:0", "attr": {"explicit_paddings": {"list": {}}, "filter_format": {"s": "SFdJTw=="}, "use_cudnn_on_gpu": {"b": true}, "padding": {"s": "U0FNRQ=="}, "leakyrelu_alpha": {"f": 0.2}, "data_format": {"s": "TkhXQw=="}, "num_host_args": {"i": "0"}, "TArgs": {"list": {"type": ["DT_FLOAT"]}}, "dilations": {"list": {"i": ["1", "1", "1", "1"]}}, "strides": {"list": {"i": ["1", "1", "1", "1"]}}, "num_args": {"i": "1"}, "fused_ops": {"list": {"s": ["Qmlhc0FkZA=="]}}, "T": {"type": "DT_FLOAT"}, "epsilon": {"f": 0.0}}}, {"name": "model_13/tf.math.sigmoid_15/Sigmoid", "op": "Sigmoid", "input": ["model_13/tf.math.add_21/Add"], "attr": {"T": {"type": "DT_FLOAT"}}}, {"name": "model_13/tf.math.multiply_69/Mul", "op": "Mul", "input": ["model_13/tf.math.add_21/Add", "model_13/tf.math.sigmoid_15/Sigmoid"], "attr": {"T": {"type": "DT_FLOAT"}}}, {"name": "model_13/tf.math.add_22/Add", "op": "_FusedConv2D", "input": ["model_13/tf.math.multiply_69/Mul", "model_13/tf.nn.convolution_16/convolution/filter", "model_13/tf.math.add_22/Add/y"], "device": "/device:CPU:0", "attr": {"filter_format": {"s": "SFdJTw=="}, "use_cudnn_on_gpu": {"b": true}, "TArgs": {"list": {"type": ["DT_FLOAT"]}}, "T": {"type": "DT_FLOAT"}, "padding": {"s": "U0FNRQ=="}, "data_format": {"s": "TkhXQw=="}, "fused_ops": {"list": {"s": ["Qmlhc0FkZA=="]}}, "strides": {"list": {"i": ["1", "1", "1", "1"]}}, "dilations": {"list": {"i": ["1", "1", "1", "1"]}}, "explicit_paddings": {"list": {}}, "leakyrelu_alpha": {"f": 0.2}, "num_host_args": {"i": "0"}, "num_args": {"i": "1"}, "epsilon": {"f": 0.0}}}, {"name": "model_13/tf.math.sigmoid_16/Sigmoid", "op": "Sigmoid", "input": ["model_13/tf.math.add_22/Add"], "attr": {"T": {"type": "DT_FLOAT"}}}, {"name": "model_13/tf.math.multiply_73/Mul", "op": "Mul", "input": ["model_13/tf.math.add_22/Add", "model_13/tf.math.sigmoid_16/Sigmoid"], "attr": {"T": {"type": "DT_FLOAT"}}}, {"name": "model_13/tf.math.add_24/Add", "op": "AddV2", "input": ["model_13/tf.strided_slice_5/StridedSlice", "model_13/tf.math.multiply_73/Mul"], "attr": {"T": {"type": "DT_FLOAT"}}}, {"name": "model_13/tf.math.add_25/Add", "op": "_FusedConv2D", "input": ["model_13/tf.math.add_24/Add", "model_13/tf.nn.convolution_17/convolution/filter", "model_13/tf.math.add_25/Add/y"], "device": "/device:CPU:0", "attr": {"num_args": {"i": "1"}, "data_format": {"s": "TkhXQw=="}, "leakyrelu_alpha": {"f": 0.2}, "TArgs": {"list": {"type": ["DT_FLOAT"]}}, "padding": {"s": "U0FNRQ=="}, "epsilon": {"f": 0.0}, "fused_ops": {"list": {"s": ["Qmlhc0FkZA=="]}}, "num_host_args": {"i": "0"}, "explicit_paddings": {"list": {}}, "T": {"type": "DT_FLOAT"}, "strides": {"list": {"i": ["1", "1", "1", "1"]}}, "use_cudnn_on_gpu": {"b": true}, "filter_format": {"s": "SFdJTw=="}, "dilations": {"list": {"i": ["1", "1", "1", "1"]}}}}, {"name": "model_13/tf.math.sigmoid_17/Sigmoid", "op": "Sigmoid", "input": ["model_13/tf.math.add_25/Add"], "attr": {"T": {"type": "DT_FLOAT"}}}, {"name": "model_13/tf.math.multiply_79/Mul", "op": "Mul", "input": ["model_13/tf.math.add_25/Add", "model_13/tf.math.sigmoid_17/Sigmoid"], "attr": {"T": {"type": "DT_FLOAT"}}}, {"name": "model_13/tf.math.add_26/Add", "op": "_FusedConv2D", "input": ["model_13/tf.math.multiply_79/Mul", "model_13/tf.nn.convolution_18/convolution/filter", "model_13/tf.math.add_26/Add/y"], "device": "/device:CPU:0", "attr": {"strides": {"list": {"i": ["1", "1", "1", "1"]}}, "num_args": {"i": "1"}, "explicit_paddings": {"list": {}}, "T": {"type": "DT_FLOAT"}, "fused_ops": {"list": {"s": ["Qmlhc0FkZA=="]}}, "num_host_args": {"i": "0"}, "epsilon": {"f": 0.0}, "TArgs": {"list": {"type": ["DT_FLOAT"]}}, "filter_format": {"s": "SFdJTw=="}, "dilations": {"list": {"i": ["1", "1", "1", "1"]}}, "leakyrelu_alpha": {"f": 0.2}, "padding": {"s": "U0FNRQ=="}, "data_format": {"s": "TkhXQw=="}, "use_cudnn_on_gpu": {"b": true}}}, {"name": "model_13/tf.math.sigmoid_18/Sigmoid", "op": "Sigmoid", "input": ["model_13/tf.math.add_26/Add"], "attr": {"T": {"type": "DT_FLOAT"}}}, {"name": "model_13/tf.math.multiply_83/Mul", "op": "Mul", "input": ["model_13/tf.math.add_26/Add", "model_13/tf.math.sigmoid_18/Sigmoid"], "attr": {"T": {"type": "DT_FLOAT"}}}, {"name": "model_13/tf.math.add_28/Add", "op": "AddV2", "input": ["model_13/tf.math.add_24/Add", "model_13/tf.math.multiply_83/Mul"], "attr": {"T": {"type": "DT_FLOAT"}}}, {"name": "model_13/tf.concat_2/concat", "op": "ConcatV2", "input": ["model_13/tf.strided_slice_4/StridedSlice", "model_13/tf.strided_slice_5/StridedSlice", "model_13/tf.math.add_24/Add", "model_13/tf.math.add_28/Add", "model_13/tf.concat_2/concat/axis"], "attr": {"N": {"i": "4"}, "T": {"type": "DT_FLOAT"}, "Tidx": {"type": "DT_INT32"}}}, {"name": "model_13/tf.math.add_29/Add", "op": "_FusedConv2D", "input": ["model_13/tf.concat_2/concat", "model_13/tf.nn.convolution_19/convolution/filter", "model_13/tf.math.add_29/Add/y"], "device": "/device:CPU:0", "attr": {"padding": {"s": "U0FNRQ=="}, "data_format": {"s": "TkhXQw=="}, "num_args": {"i": "1"}, "T": {"type": "DT_FLOAT"}, "explicit_paddings": {"list": {}}, "num_host_args": {"i": "0"}, "strides": {"list": {"i": ["1", "1", "1", "1"]}}, "filter_format": {"s": "SFdJTw=="}, "TArgs": {"list": {"type": ["DT_FLOAT"]}}, "fused_ops": {"list": {"s": ["Qmlhc0FkZA=="]}}, "epsilon": {"f": 0.0}, "dilations": {"list": {"i": ["1", "1", "1", "1"]}}, "leakyrelu_alpha": {"f": 0.2}, "use_cudnn_on_gpu": {"b": true}}}, {"name": "model_13/tf.math.sigmoid_19/Sigmoid", "op": "Sigmoid", "input": ["model_13/tf.math.add_29/Add"], "attr": {"T": {"type": "DT_FLOAT"}}}, {"name": "model_13/tf.math.multiply_89/Mul", "op": "Mul", "input": ["model_13/tf.math.add_29/Add", "model_13/tf.math.sigmoid_19/Sigmoid"], "attr": {"T": {"type": "DT_FLOAT"}}}, {"name": "model_13/tf.compat.v1.pad_4/Pad", "op": "Pad", "input": ["model_13/tf.math.multiply_89/Mul", "model_13/tf.compat.v1.pad_4/Pad/paddings"], "attr": {"Tpaddings": {"type": "DT_INT32"}, "T": {"type": "DT_FLOAT"}}}, {"name": "model_13/tf.math.add_30/Add", "op": "_FusedConv2D", "input": ["model_13/tf.compat.v1.pad_4/Pad", "model_13/tf.nn.convolution_20/convolution/filter", "model_13/tf.math.add_30/Add/y"], "device": "/device:CPU:0", "attr": {"leakyrelu_alpha": {"f": 0.2}, "epsilon": {"f": 0.0}, "use_cudnn_on_gpu": {"b": true}, "filter_format": {"s": "SFdJTw=="}, "dilations": {"list": {"i": ["1", "1", "1", "1"]}}, "explicit_paddings": {"list": {}}, "padding": {"s": "VkFMSUQ="}, "TArgs": {"list": {"type": ["DT_FLOAT"]}}, "fused_ops": {"list": {"s": ["Qmlhc0FkZA=="]}}, "data_format": {"s": "TkhXQw=="}, "T": {"type": "DT_FLOAT"}, "num_args": {"i": "1"}, "num_host_args": {"i": "0"}, "strides": {"list": {"i": ["1", "2", "2", "1"]}}}}, {"name": "model_13/tf.math.sigmoid_20/Sigmoid", "op": "Sigmoid", "input": ["model_13/tf.math.add_30/Add"], "attr": {"T": {"type": "DT_FLOAT"}}}, {"name": "model_13/tf.math.multiply_93/Mul", "op": "Mul", "input": ["model_13/tf.math.add_30/Add", "model_13/tf.math.sigmoid_20/Sigmoid"], "attr": {"T": {"type": "DT_FLOAT"}}}, {"name": "model_13/tf.math.add_31/Add", "op": "_FusedConv2D", "input": ["model_13/tf.math.multiply_93/Mul", "model_13/tf.nn.convolution_21/convolution/filter", "model_13/tf.math.add_31/Add/y"], "device": "/device:CPU:0", "attr": {"dilations": {"list": {"i": ["1", "1", "1", "1"]}}, "num_args": {"i": "1"}, "leakyrelu_alpha": {"f": 0.2}, "filter_format": {"s": "SFdJTw=="}, "data_format": {"s": "TkhXQw=="}, "TArgs": {"list": {"type": ["DT_FLOAT"]}}, "fused_ops": {"list": {"s": ["Qmlhc0FkZA=="]}}, "strides": {"list": {"i": ["1", "1", "1", "1"]}}, "explicit_paddings": {"list": {}}, "epsilon": {"f": 0.0}, "padding": {"s": "U0FNRQ=="}, "T": {"type": "DT_FLOAT"}, "use_cudnn_on_gpu": {"b": true}, "num_host_args": {"i": "0"}}}, {"name": "model_13/tf.math.sigmoid_21/Sigmoid", "op": "Sigmoid", "input": ["model_13/tf.math.add_31/Add"], "attr": {"T": {"type": "DT_FLOAT"}}}, {"name": "model_13/tf.math.multiply_97/Mul", "op": "Mul", "input": ["model_13/tf.math.add_31/Add", "model_13/tf.math.sigmoid_21/Sigmoid"], "attr": {"T": {"type": "DT_FLOAT"}}}, {"name": "model_13/tf.strided_slice_6/StridedSlice", "op": "StridedSlice", "input": ["model_13/tf.math.multiply_97/Mul", "model_13/tf.strided_slice_6/ones_like/tensor", "model_13/tf.strided_slice_6/StridedSlice/end", "model_13/tf.strided_slice_6/ones_like"], "attr": {"shrink_axis_mask": {"i": "0"}, "begin_mask": {"i": "15"}, "ellipsis_mask": {"i": "0"}, "Index": {"type": "DT_INT64"}, "T": {"type": "DT_FLOAT"}, "new_axis_mask": {"i": "0"}, "end_mask": {"i": "7"}}}, {"name": "model_13/tf.strided_slice_7/StridedSlice", "op": "StridedSlice", "input": ["model_13/tf.math.multiply_97/Mul", "model_13/tf.strided_slice_7/ones_like/tensor", "model_13/tf.strided_slice_7/StridedSlice/end", "model_13/tf.strided_slice_7/ones_like"], "attr": {"Index": {"type": "DT_INT64"}, "ellipsis_mask": {"i": "0"}, "new_axis_mask": {"i": "0"}, "begin_mask": {"i": "7"}, "T": {"type": "DT_FLOAT"}, "shrink_axis_mask": {"i": "0"}, "end_mask": {"i": "7"}}}, {"name": "model_13/tf.math.add_32/Add", "op": "_FusedConv2D", "input": ["model_13/tf.strided_slice_7/StridedSlice", "model_13/tf.nn.convolution_22/convolution/filter", "model_13/tf.math.add_32/Add/y"], "device": "/device:CPU:0", "attr": {"num_host_args": {"i": "0"}, "use_cudnn_on_gpu": {"b": true}, "padding": {"s": "U0FNRQ=="}, "explicit_paddings": {"list": {}}, "epsilon": {"f": 0.0}, "leakyrelu_alpha": {"f": 0.2}, "num_args": {"i": "1"}, "strides": {"list": {"i": ["1", "1", "1", "1"]}}, "TArgs": {"list": {"type": ["DT_FLOAT"]}}, "dilations": {"list": {"i": ["1", "1", "1", "1"]}}, "T": {"type": "DT_FLOAT"}, "data_format": {"s": "TkhXQw=="}, "fused_ops": {"list": {"s": ["Qmlhc0FkZA=="]}}, "filter_format": {"s": "SFdJTw=="}}}, {"name": "model_13/tf.math.sigmoid_22/Sigmoid", "op": "Sigmoid", "input": ["model_13/tf.math.add_32/Add"], "attr": {"T": {"type": "DT_FLOAT"}}}, {"name": "model_13/tf.math.multiply_101/Mul", "op": "Mul", "input": ["model_13/tf.math.add_32/Add", "model_13/tf.math.sigmoid_22/Sigmoid"], "attr": {"T": {"type": "DT_FLOAT"}}}, {"name": "model_13/tf.math.add_33/Add", "op": "_FusedConv2D", "input": ["model_13/tf.math.multiply_101/Mul", "model_13/tf.nn.convolution_23/convolution/filter", "model_13/tf.math.add_33/Add/y"], "device": "/device:CPU:0", "attr": {"fused_ops": {"list": {"s": ["Qmlhc0FkZA=="]}}, "dilations": {"list": {"i": ["1", "1", "1", "1"]}}, "epsilon": {"f": 0.0}, "leakyrelu_alpha": {"f": 0.2}, "padding": {"s": "U0FNRQ=="}, "TArgs": {"list": {"type": ["DT_FLOAT"]}}, "num_host_args": {"i": "0"}, "use_cudnn_on_gpu": {"b": true}, "filter_format": {"s": "SFdJTw=="}, "explicit_paddings": {"list": {}}, "num_args": {"i": "1"}, "strides": {"list": {"i": ["1", "1", "1", "1"]}}, "data_format": {"s": "TkhXQw=="}, "T": {"type": "DT_FLOAT"}}}, {"name": "model_13/tf.math.sigmoid_23/Sigmoid", "op": "Sigmoid", "input": ["model_13/tf.math.add_33/Add"], "attr": {"T": {"type": "DT_FLOAT"}}}, {"name": "model_13/tf.math.multiply_105/Mul", "op": "Mul", "input": ["model_13/tf.math.add_33/Add", "model_13/tf.math.sigmoid_23/Sigmoid"], "attr": {"T": {"type": "DT_FLOAT"}}}, {"name": "model_13/tf.math.add_35/Add", "op": "AddV2", "input": ["model_13/tf.strided_slice_7/StridedSlice", "model_13/tf.math.multiply_105/Mul"], "attr": {"T": {"type": "DT_FLOAT"}}}, {"name": "model_13/tf.concat_3/concat", "op": "ConcatV2", "input": ["model_13/tf.strided_slice_6/StridedSlice", "model_13/tf.strided_slice_7/StridedSlice", "model_13/tf.math.add_35/Add", "model_13/tf.concat_3/concat/axis"], "attr": {"N": {"i": "3"}, "Tidx": {"type": "DT_INT32"}, "T": {"type": "DT_FLOAT"}}}, {"name": "model_13/tf.math.add_36/Add", "op": "_FusedConv2D", "input": ["model_13/tf.concat_3/concat", "model_13/tf.nn.convolution_24/convolution/filter", "model_13/tf.math.add_36/Add/y"], "device": "/device:CPU:0", "attr": {"epsilon": {"f": 0.0}, "use_cudnn_on_gpu": {"b": true}, "filter_format": {"s": "SFdJTw=="}, "leakyrelu_alpha": {"f": 0.2}, "padding": {"s": "U0FNRQ=="}, "strides": {"list": {"i": ["1", "1", "1", "1"]}}, "explicit_paddings": {"list": {}}, "data_format": {"s": "TkhXQw=="}, "T": {"type": "DT_FLOAT"}, "num_args": {"i": "1"}, "fused_ops": {"list": {"s": ["Qmlhc0FkZA=="]}}, "dilations": {"list": {"i": ["1", "1", "1", "1"]}}, "num_host_args": {"i": "0"}, "TArgs": {"list": {"type": ["DT_FLOAT"]}}}}, {"name": "model_13/tf.math.sigmoid_24/Sigmoid", "op": "Sigmoid", "input": ["model_13/tf.math.add_36/Add"], "attr": {"T": {"type": "DT_FLOAT"}}}, {"name": "model_13/tf.math.multiply_111/Mul", "op": "Mul", "input": ["model_13/tf.math.add_36/Add", "model_13/tf.math.sigmoid_24/Sigmoid"], "attr": {"T": {"type": "DT_FLOAT"}}}, {"name": "model_13/tf.math.add_37/Add", "op": "_FusedConv2D", "input": ["model_13/tf.math.multiply_111/Mul", "model_13/tf.nn.convolution_25/convolution/filter", "model_13/tf.math.add_37/Add/y"], "device": "/device:CPU:0", "attr": {"num_args": {"i": "1"}, "dilations": {"list": {"i": ["1", "1", "1", "1"]}}, "TArgs": {"list": {"type": ["DT_FLOAT"]}}, "data_format": {"s": "TkhXQw=="}, "epsilon": {"f": 0.0}, "strides": {"list": {"i": ["1", "1", "1", "1"]}}, "filter_format": {"s": "SFdJTw=="}, "use_cudnn_on_gpu": {"b": true}, "leakyrelu_alpha": {"f": 0.2}, "fused_ops": {"list": {"s": ["Qmlhc0FkZA=="]}}, "explicit_paddings": {"list": {}}, "num_host_args": {"i": "0"}, "T": {"type": "DT_FLOAT"}, "padding": {"s": "U0FNRQ=="}}}, {"name": "model_13/tf.math.sigmoid_25/Sigmoid", "op": "Sigmoid", "input": ["model_13/tf.math.add_37/Add"], "attr": {"T": {"type": "DT_FLOAT"}}}, {"name": "model_13/tf.math.multiply_115/Mul", "op": "Mul", "input": ["model_13/tf.math.add_37/Add", "model_13/tf.math.sigmoid_25/Sigmoid"], "attr": {"T": {"type": "DT_FLOAT"}}}, {"name": "model_13/tf.compat.v1.nn.pool/max_pool", "op": "MaxPool", "input": ["model_13/tf.math.multiply_115/Mul"], "attr": {"T": {"type": "DT_FLOAT"}, "strides": {"list": {"i": ["1", "1", "1", "1"]}}, "padding": {"s": "U0FNRQ=="}, "explicit_paddings": {"list": {}}, "ksize": {"list": {"i": ["1", "5", "5", "1"]}}, "data_format": {"s": "TkhXQw=="}}}, {"name": "model_13/tf.compat.v1.nn.pool_1/max_pool", "op": "MaxPool", "input": ["model_13/tf.compat.v1.nn.pool/max_pool"], "attr": {"strides": {"list": {"i": ["1", "1", "1", "1"]}}, "data_format": {"s": "TkhXQw=="}, "ksize": {"list": {"i": ["1", "5", "5", "1"]}}, "explicit_paddings": {"list": {}}, "T": {"type": "DT_FLOAT"}, "padding": {"s": "U0FNRQ=="}}}, {"name": "model_13/tf.compat.v1.nn.pool_2/max_pool", "op": "MaxPool", "input": ["model_13/tf.compat.v1.nn.pool_1/max_pool"], "attr": {"explicit_paddings": {"list": {}}, "data_format": {"s": "TkhXQw=="}, "strides": {"list": {"i": ["1", "1", "1", "1"]}}, "ksize": {"list": {"i": ["1", "5", "5", "1"]}}, "T": {"type": "DT_FLOAT"}, "padding": {"s": "U0FNRQ=="}}}, {"name": "model_13/tf.concat_4/concat", "op": "ConcatV2", "input": ["model_13/tf.math.multiply_115/Mul", "model_13/tf.compat.v1.nn.pool/max_pool", "model_13/tf.compat.v1.nn.pool_1/max_pool", "model_13/tf.compat.v1.nn.pool_2/max_pool", "model_13/tf.concat_4/concat/axis"], "attr": {"N": {"i": "4"}, "T": {"type": "DT_FLOAT"}, "Tidx": {"type": "DT_INT32"}}}, {"name": "model_13/tf.math.add_38/Add", "op": "_FusedConv2D", "input": ["model_13/tf.concat_4/concat", "model_13/tf.nn.convolution_26/convolution/filter", "model_13/tf.math.add_38/Add/y"], "device": "/device:CPU:0", "attr": {"use_cudnn_on_gpu": {"b": true}, "padding": {"s": "U0FNRQ=="}, "explicit_paddings": {"list": {}}, "dilations": {"list": {"i": ["1", "1", "1", "1"]}}, "fused_ops": {"list": {"s": ["Qmlhc0FkZA=="]}}, "filter_format": {"s": "SFdJTw=="}, "data_format": {"s": "TkhXQw=="}, "num_host_args": {"i": "0"}, "epsilon": {"f": 0.0}, "strides": {"list": {"i": ["1", "1", "1", "1"]}}, "num_args": {"i": "1"}, "leakyrelu_alpha": {"f": 0.2}, "TArgs": {"list": {"type": ["DT_FLOAT"]}}, "T": {"type": "DT_FLOAT"}}}, {"name": "model_13/tf.math.sigmoid_26/Sigmoid", "op": "Sigmoid", "input": ["model_13/tf.math.add_38/Add"], "attr": {"T": {"type": "DT_FLOAT"}}}, {"name": "model_13/tf.math.multiply_119/Mul", "op": "Mul", "input": ["model_13/tf.math.add_38/Add", "model_13/tf.math.sigmoid_26/Sigmoid"], "attr": {"T": {"type": "DT_FLOAT"}}}, {"name": "model_13/tf.image.resize/resize/ResizeNearestNeighbor", "op": "ResizeNearestNeighbor", "input": ["model_13/tf.math.multiply_119/Mul", "model_13/tf.image.resize/resize/size"], "attr": {"half_pixel_centers": {"b": true}, "align_corners": {"b": false}, "T": {"type": "DT_FLOAT"}}}, {"name": "model_13/tf.concat_5/concat", "op": "ConcatV2", "input": ["model_13/tf.image.resize/resize/ResizeNearestNeighbor", "model_13/tf.math.multiply_89/Mul", "model_13/tf.concat_5/concat/axis"], "attr": {"N": {"i": "2"}, "T": {"type": "DT_FLOAT"}, "Tidx": {"type": "DT_INT32"}}}, {"name": "model_13/tf.math.add_39/Add", "op": "_FusedConv2D", "input": ["model_13/tf.concat_5/concat", "model_13/tf.nn.convolution_27/convolution/filter", "model_13/tf.math.add_39/Add/y"], "device": "/device:CPU:0", "attr": {"explicit_paddings": {"list": {}}, "num_host_args": {"i": "0"}, "num_args": {"i": "1"}, "epsilon": {"f": 0.0}, "strides": {"list": {"i": ["1", "1", "1", "1"]}}, "fused_ops": {"list": {"s": ["Qmlhc0FkZA=="]}}, "padding": {"s": "U0FNRQ=="}, "use_cudnn_on_gpu": {"b": true}, "dilations": {"list": {"i": ["1", "1", "1", "1"]}}, "filter_format": {"s": "SFdJTw=="}, "T": {"type": "DT_FLOAT"}, "data_format": {"s": "TkhXQw=="}, "TArgs": {"list": {"type": ["DT_FLOAT"]}}, "leakyrelu_alpha": {"f": 0.2}}}, {"name": "model_13/tf.math.sigmoid_27/Sigmoid", "op": "Sigmoid", "input": ["model_13/tf.math.add_39/Add"], "attr": {"T": {"type": "DT_FLOAT"}}}, {"name": "model_13/tf.math.multiply_123/Mul", "op": "Mul", "input": ["model_13/tf.math.add_39/Add", "model_13/tf.math.sigmoid_27/Sigmoid"], "attr": {"T": {"type": "DT_FLOAT"}}}, {"name": "model_13/tf.strided_slice_8/StridedSlice", "op": "StridedSlice", "input": ["model_13/tf.math.multiply_123/Mul", "model_13/tf.strided_slice_8/ones_like/tensor", "model_13/tf.strided_slice_8/StridedSlice/end", "model_13/tf.strided_slice_8/ones_like"], "attr": {"Index": {"type": "DT_INT64"}, "begin_mask": {"i": "15"}, "ellipsis_mask": {"i": "0"}, "new_axis_mask": {"i": "0"}, "T": {"type": "DT_FLOAT"}, "end_mask": {"i": "7"}, "shrink_axis_mask": {"i": "0"}}}, {"name": "model_13/tf.strided_slice_9/StridedSlice", "op": "StridedSlice", "input": ["model_13/tf.math.multiply_123/Mul", "model_13/tf.strided_slice_9/ones_like/tensor", "model_13/tf.strided_slice_9/StridedSlice/end", "model_13/tf.strided_slice_9/ones_like"], "attr": {"end_mask": {"i": "7"}, "ellipsis_mask": {"i": "0"}, "Index": {"type": "DT_INT64"}, "new_axis_mask": {"i": "0"}, "begin_mask": {"i": "7"}, "shrink_axis_mask": {"i": "0"}, "T": {"type": "DT_FLOAT"}}}, {"name": "model_13/tf.math.add_40/Add", "op": "_FusedConv2D", "input": ["model_13/tf.strided_slice_9/StridedSlice", "model_13/tf.nn.convolution_28/convolution/filter", "model_13/tf.math.add_40/Add/y"], "device": "/device:CPU:0", "attr": {"strides": {"list": {"i": ["1", "1", "1", "1"]}}, "use_cudnn_on_gpu": {"b": true}, "dilations": {"list": {"i": ["1", "1", "1", "1"]}}, "explicit_paddings": {"list": {}}, "filter_format": {"s": "SFdJTw=="}, "padding": {"s": "U0FNRQ=="}, "TArgs": {"list": {"type": ["DT_FLOAT"]}}, "fused_ops": {"list": {"s": ["Qmlhc0FkZA=="]}}, "epsilon": {"f": 0.0}, "leakyrelu_alpha": {"f": 0.2}, "num_args": {"i": "1"}, "num_host_args": {"i": "0"}, "data_format": {"s": "TkhXQw=="}, "T": {"type": "DT_FLOAT"}}}, {"name": "model_13/tf.math.sigmoid_28/Sigmoid", "op": "Sigmoid", "input": ["model_13/tf.math.add_40/Add"], "attr": {"T": {"type": "DT_FLOAT"}}}, {"name": "model_13/tf.math.multiply_127/Mul", "op": "Mul", "input": ["model_13/tf.math.add_40/Add", "model_13/tf.math.sigmoid_28/Sigmoid"], "attr": {"T": {"type": "DT_FLOAT"}}}, {"name": "model_13/tf.math.add_41/Add", "op": "_FusedConv2D", "input": ["model_13/tf.math.multiply_127/Mul", "model_13/tf.nn.convolution_29/convolution/filter", "model_13/tf.math.add_41/Add/y"], "device": "/device:CPU:0", "attr": {"leakyrelu_alpha": {"f": 0.2}, "fused_ops": {"list": {"s": ["Qmlhc0FkZA=="]}}, "explicit_paddings": {"list": {}}, "TArgs": {"list": {"type": ["DT_FLOAT"]}}, "padding": {"s": "U0FNRQ=="}, "T": {"type": "DT_FLOAT"}, "data_format": {"s": "TkhXQw=="}, "strides": {"list": {"i": ["1", "1", "1", "1"]}}, "filter_format": {"s": "SFdJTw=="}, "num_args": {"i": "1"}, "num_host_args": {"i": "0"}, "use_cudnn_on_gpu": {"b": true}, "dilations": {"list": {"i": ["1", "1", "1", "1"]}}, "epsilon": {"f": 0.0}}}, {"name": "model_13/tf.math.sigmoid_29/Sigmoid", "op": "Sigmoid", "input": ["model_13/tf.math.add_41/Add"], "attr": {"T": {"type": "DT_FLOAT"}}}, {"name": "model_13/tf.math.multiply_131/Mul", "op": "Mul", "input": ["model_13/tf.math.add_41/Add", "model_13/tf.math.sigmoid_29/Sigmoid"], "attr": {"T": {"type": "DT_FLOAT"}}}, {"name": "model_13/tf.concat_6/concat", "op": "ConcatV2", "input": ["model_13/tf.strided_slice_8/StridedSlice", "model_13/tf.strided_slice_9/StridedSlice", "model_13/tf.math.multiply_131/Mul", "model_13/tf.concat_6/concat/axis"], "attr": {"T": {"type": "DT_FLOAT"}, "N": {"i": "3"}, "Tidx": {"type": "DT_INT32"}}}, {"name": "model_13/tf.math.add_42/Add", "op": "_FusedConv2D", "input": ["model_13/tf.concat_6/concat", "model_13/tf.nn.convolution_30/convolution/filter", "model_13/tf.math.add_42/Add/y"], "device": "/device:CPU:0", "attr": {"use_cudnn_on_gpu": {"b": true}, "num_host_args": {"i": "0"}, "padding": {"s": "U0FNRQ=="}, "strides": {"list": {"i": ["1", "1", "1", "1"]}}, "num_args": {"i": "1"}, "epsilon": {"f": 0.0}, "dilations": {"list": {"i": ["1", "1", "1", "1"]}}, "data_format": {"s": "TkhXQw=="}, "fused_ops": {"list": {"s": ["Qmlhc0FkZA=="]}}, "T": {"type": "DT_FLOAT"}, "leakyrelu_alpha": {"f": 0.2}, "explicit_paddings": {"list": {}}, "TArgs": {"list": {"type": ["DT_FLOAT"]}}, "filter_format": {"s": "SFdJTw=="}}}, {"name": "model_13/tf.math.sigmoid_30/Sigmoid", "op": "Sigmoid", "input": ["model_13/tf.math.add_42/Add"], "attr": {"T": {"type": "DT_FLOAT"}}}, {"name": "model_13/tf.math.multiply_135/Mul", "op": "Mul", "input": ["model_13/tf.math.add_42/Add", "model_13/tf.math.sigmoid_30/Sigmoid"], "attr": {"T": {"type": "DT_FLOAT"}}}, {"name": "model_13/tf.image.resize_1/resize/ResizeNearestNeighbor", "op": "ResizeNearestNeighbor", "input": ["model_13/tf.math.multiply_135/Mul", "model_13/tf.image.resize_1/resize/size"], "attr": {"align_corners": {"b": false}, "half_pixel_centers": {"b": true}, "T": {"type": "DT_FLOAT"}}}, {"name": "model_13/tf.concat_7/concat", "op": "ConcatV2", "input": ["model_13/tf.image.resize_1/resize/ResizeNearestNeighbor", "model_13/tf.math.multiply_57/Mul", "model_13/tf.concat_7/concat/axis"], "attr": {"Tidx": {"type": "DT_INT32"}, "N": {"i": "2"}, "T": {"type": "DT_FLOAT"}}}, {"name": "model_13/tf.math.add_43/Add", "op": "_FusedConv2D", "input": ["model_13/tf.concat_7/concat", "model_13/tf.nn.convolution_31/convolution/filter", "model_13/tf.math.add_43/Add/y"], "device": "/device:CPU:0", "attr": {"epsilon": {"f": 0.0}, "num_args": {"i": "1"}, "strides": {"list": {"i": ["1", "1", "1", "1"]}}, "num_host_args": {"i": "0"}, "T": {"type": "DT_FLOAT"}, "dilations": {"list": {"i": ["1", "1", "1", "1"]}}, "fused_ops": {"list": {"s": ["Qmlhc0FkZA=="]}}, "explicit_paddings": {"list": {}}, "leakyrelu_alpha": {"f": 0.2}, "use_cudnn_on_gpu": {"b": true}, "filter_format": {"s": "SFdJTw=="}, "data_format": {"s": "TkhXQw=="}, "TArgs": {"list": {"type": ["DT_FLOAT"]}}, "padding": {"s": "U0FNRQ=="}}}, {"name": "model_13/tf.math.sigmoid_31/Sigmoid", "op": "Sigmoid", "input": ["model_13/tf.math.add_43/Add"], "attr": {"T": {"type": "DT_FLOAT"}}}, {"name": "model_13/tf.math.multiply_139/Mul", "op": "Mul", "input": ["model_13/tf.math.add_43/Add", "model_13/tf.math.sigmoid_31/Sigmoid"], "attr": {"T": {"type": "DT_FLOAT"}}}, {"name": "model_13/tf.strided_slice_10/StridedSlice", "op": "StridedSlice", "input": ["model_13/tf.math.multiply_139/Mul", "model_13/tf.strided_slice_10/ones_like/tensor", "model_13/tf.strided_slice_10/StridedSlice/end", "model_13/tf.strided_slice_10/ones_like"], "attr": {"ellipsis_mask": {"i": "0"}, "Index": {"type": "DT_INT64"}, "begin_mask": {"i": "15"}, "new_axis_mask": {"i": "0"}, "shrink_axis_mask": {"i": "0"}, "end_mask": {"i": "7"}, "T": {"type": "DT_FLOAT"}}}, {"name": "model_13/tf.strided_slice_11/StridedSlice", "op": "StridedSlice", "input": ["model_13/tf.math.multiply_139/Mul", "model_13/tf.strided_slice_11/ones_like/tensor", "model_13/tf.strided_slice_11/StridedSlice/end", "model_13/tf.strided_slice_11/ones_like"], "attr": {"Index": {"type": "DT_INT64"}, "shrink_axis_mask": {"i": "0"}, "begin_mask": {"i": "7"}, "ellipsis_mask": {"i": "0"}, "end_mask": {"i": "7"}, "new_axis_mask": {"i": "0"}, "T": {"type": "DT_FLOAT"}}}, {"name": "model_13/tf.math.add_44/Add", "op": "_FusedConv2D", "input": ["model_13/tf.strided_slice_11/StridedSlice", "model_13/tf.nn.convolution_32/convolution/filter", "model_13/tf.math.add_44/Add/y"], "device": "/device:CPU:0", "attr": {"TArgs": {"list": {"type": ["DT_FLOAT"]}}, "leakyrelu_alpha": {"f": 0.2}, "T": {"type": "DT_FLOAT"}, "dilations": {"list": {"i": ["1", "1", "1", "1"]}}, "strides": {"list": {"i": ["1", "1", "1", "1"]}}, "filter_format": {"s": "SFdJTw=="}, "epsilon": {"f": 0.0}, "data_format": {"s": "TkhXQw=="}, "num_host_args": {"i": "0"}, "explicit_paddings": {"list": {}}, "padding": {"s": "U0FNRQ=="}, "use_cudnn_on_gpu": {"b": true}, "num_args": {"i": "1"}, "fused_ops": {"list": {"s": ["Qmlhc0FkZA=="]}}}}, {"name": "model_13/tf.math.sigmoid_32/Sigmoid", "op": "Sigmoid", "input": ["model_13/tf.math.add_44/Add"], "attr": {"T": {"type": "DT_FLOAT"}}}, {"name": "model_13/tf.math.multiply_143/Mul", "op": "Mul", "input": ["model_13/tf.math.add_44/Add", "model_13/tf.math.sigmoid_32/Sigmoid"], "attr": {"T": {"type": "DT_FLOAT"}}}, {"name": "model_13/tf.math.add_45/Add", "op": "_FusedConv2D", "input": ["model_13/tf.math.multiply_143/Mul", "model_13/tf.nn.convolution_33/convolution/filter", "model_13/tf.math.add_45/Add/y"], "device": "/device:CPU:0", "attr": {"use_cudnn_on_gpu": {"b": true}, "num_args": {"i": "1"}, "leakyrelu_alpha": {"f": 0.2}, "TArgs": {"list": {"type": ["DT_FLOAT"]}}, "data_format": {"s": "TkhXQw=="}, "num_host_args": {"i": "0"}, "epsilon": {"f": 0.0}, "explicit_paddings": {"list": {}}, "T": {"type": "DT_FLOAT"}, "strides": {"list": {"i": ["1", "1", "1", "1"]}}, "filter_format": {"s": "SFdJTw=="}, "dilations": {"list": {"i": ["1", "1", "1", "1"]}}, "fused_ops": {"list": {"s": ["Qmlhc0FkZA=="]}}, "padding": {"s": "U0FNRQ=="}}}, {"name": "model_13/tf.math.sigmoid_33/Sigmoid", "op": "Sigmoid", "input": ["model_13/tf.math.add_45/Add"], "attr": {"T": {"type": "DT_FLOAT"}}}, {"name": "model_13/tf.math.multiply_147/Mul", "op": "Mul", "input": ["model_13/tf.math.add_45/Add", "model_13/tf.math.sigmoid_33/Sigmoid"], "attr": {"T": {"type": "DT_FLOAT"}}}, {"name": "model_13/tf.concat_8/concat", "op": "ConcatV2", "input": ["model_13/tf.strided_slice_10/StridedSlice", "model_13/tf.strided_slice_11/StridedSlice", "model_13/tf.math.multiply_147/Mul", "model_13/tf.concat_8/concat/axis"], "attr": {"N": {"i": "3"}, "T": {"type": "DT_FLOAT"}, "Tidx": {"type": "DT_INT32"}}}, {"name": "model_13/tf.math.add_46/Add", "op": "_FusedConv2D", "input": ["model_13/tf.concat_8/concat", "model_13/tf.nn.convolution_34/convolution/filter", "model_13/tf.math.add_46/Add/y"], "device": "/device:CPU:0", "attr": {"TArgs": {"list": {"type": ["DT_FLOAT"]}}, "padding": {"s": "U0FNRQ=="}, "use_cudnn_on_gpu": {"b": true}, "dilations": {"list": {"i": ["1", "1", "1", "1"]}}, "fused_ops": {"list": {"s": ["Qmlhc0FkZA=="]}}, "epsilon": {"f": 0.0}, "num_host_args": {"i": "0"}, "explicit_paddings": {"list": {}}, "strides": {"list": {"i": ["1", "1", "1", "1"]}}, "leakyrelu_alpha": {"f": 0.2}, "T": {"type": "DT_FLOAT"}, "filter_format": {"s": "SFdJTw=="}, "num_args": {"i": "1"}, "data_format": {"s": "TkhXQw=="}}}, {"name": "model_13/tf.math.sigmoid_34/Sigmoid", "op": "Sigmoid", "input": ["model_13/tf.math.add_46/Add"], "attr": {"T": {"type": "DT_FLOAT"}}}, {"name": "model_13/tf.math.multiply_151/Mul", "op": "Mul", "input": ["model_13/tf.math.add_46/Add", "model_13/tf.math.sigmoid_34/Sigmoid"], "attr": {"T": {"type": "DT_FLOAT"}}}, {"name": "model_13/tf.math.add_48/Add", "op": "_FusedConv2D", "input": ["model_13/tf.math.multiply_151/Mul", "model_13/tf.nn.convolution_36/convolution/filter", "model_13/tf.math.add_48/Add/y"], "device": "/device:CPU:0", "attr": {"num_args": {"i": "1"}, "num_host_args": {"i": "0"}, "use_cudnn_on_gpu": {"b": true}, "padding": {"s": "U0FNRQ=="}, "TArgs": {"list": {"type": ["DT_FLOAT"]}}, "T": {"type": "DT_FLOAT"}, "data_format": {"s": "TkhXQw=="}, "explicit_paddings": {"list": {}}, "filter_format": {"s": "SFdJTw=="}, "dilations": {"list": {"i": ["1", "1", "1", "1"]}}, "leakyrelu_alpha": {"f": 0.2}, "fused_ops": {"list": {"s": ["Qmlhc0FkZA=="]}}, "epsilon": {"f": 0.0}, "strides": {"list": {"i": ["1", "1", "1", "1"]}}}}, {"name": "model_13/tf.math.add_49/Add", "op": "_FusedConv2D", "input": ["model_13/tf.math.multiply_151/Mul", "model_13/tf.nn.convolution_37/convolution/filter", "model_13/tf.math.add_49/Add/y"], "device": "/device:CPU:0", "attr": {"num_host_args": {"i": "0"}, "num_args": {"i": "1"}, "padding": {"s": "U0FNRQ=="}, "strides": {"list": {"i": ["1", "1", "1", "1"]}}, "data_format": {"s": "TkhXQw=="}, "fused_ops": {"list": {"s": ["Qmlhc0FkZA=="]}}, "TArgs": {"list": {"type": ["DT_FLOAT"]}}, "dilations": {"list": {"i": ["1", "1", "1", "1"]}}, "explicit_paddings": {"list": {}}, "use_cudnn_on_gpu": {"b": true}, "filter_format": {"s": "SFdJTw=="}, "epsilon": {"f": 0.0}, "T": {"type": "DT_FLOAT"}, "leakyrelu_alpha": {"f": 0.2}}}, {"name": "model_13/tf.compat.v1.pad_5/Pad", "op": "Pad", "input": ["model_13/tf.math.multiply_151/Mul", "model_13/tf.compat.v1.pad_5/Pad/paddings"], "attr": {"T": {"type": "DT_FLOAT"}, "Tpaddings": {"type": "DT_INT32"}}}, {"name": "model_13/tf.math.sigmoid_36/Sigmoid", "op": "Sigmoid", "input": ["model_13/tf.math.add_48/Add"], "attr": {"T": {"type": "DT_FLOAT"}}}, {"name": "model_13/tf.math.sigmoid_37/Sigmoid", "op": "Sigmoid", "input": ["model_13/tf.math.add_49/Add"], "attr": {"T": {"type": "DT_FLOAT"}}}, {"name": "model_13/tf.math.add_47/Add", "op": "_FusedConv2D", "input": ["model_13/tf.compat.v1.pad_5/Pad", "model_13/tf.nn.convolution_35/convolution/filter", "model_13/tf.math.add_47/Add/y"], "device": "/device:CPU:0", "attr": {"num_host_args": {"i": "0"}, "filter_format": {"s": "SFdJTw=="}, "leakyrelu_alpha": {"f": 0.2}, "fused_ops": {"list": {"s": ["Qmlhc0FkZA=="]}}, "dilations": {"list": {"i": ["1", "1", "1", "1"]}}, "padding": {"s": "VkFMSUQ="}, "use_cudnn_on_gpu": {"b": true}, "num_args": {"i": "1"}, "T": {"type": "DT_FLOAT"}, "TArgs": {"list": {"type": ["DT_FLOAT"]}}, "epsilon": {"f": 0.0}, "strides": {"list": {"i": ["1", "2", "2", "1"]}}, "explicit_paddings": {"list": {}}, "data_format": {"s": "TkhXQw=="}}}, {"name": "model_13/tf.math.multiply_159/Mul", "op": "Mul", "input": ["model_13/tf.math.add_48/Add", "model_13/tf.math.sigmoid_36/Sigmoid"], "attr": {"T": {"type": "DT_FLOAT"}}}, {"name": "model_13/tf.math.multiply_163/Mul", "op": "Mul", "input": ["model_13/tf.math.add_49/Add", "model_13/tf.math.sigmoid_37/Sigmoid"], "attr": {"T": {"type": "DT_FLOAT"}}}, {"name": "model_13/tf.math.sigmoid_35/Sigmoid", "op": "Sigmoid", "input": ["model_13/tf.math.add_47/Add"], "attr": {"T": {"type": "DT_FLOAT"}}}, {"name": "model_13/tf.math.add_50/Add", "op": "_FusedConv2D", "input": ["model_13/tf.math.multiply_159/Mul", "model_13/tf.nn.convolution_38/convolution/filter", "model_13/tf.math.add_50/Add/y"], "device": "/device:CPU:0", "attr": {"num_host_args": {"i": "0"}, "explicit_paddings": {"list": {}}, "epsilon": {"f": 0.0}, "data_format": {"s": "TkhXQw=="}, "TArgs": {"list": {"type": ["DT_FLOAT"]}}, "num_args": {"i": "1"}, "T": {"type": "DT_FLOAT"}, "use_cudnn_on_gpu": {"b": true}, "filter_format": {"s": "SFdJTw=="}, "strides": {"list": {"i": ["1", "1", "1", "1"]}}, "dilations": {"list": {"i": ["1", "1", "1", "1"]}}, "fused_ops": {"list": {"s": ["Qmlhc0FkZA=="]}}, "padding": {"s": "U0FNRQ=="}, "leakyrelu_alpha": {"f": 0.2}}}, {"name": "model_13/tf.math.add_51/Add", "op": "_FusedConv2D", "input": ["model_13/tf.math.multiply_163/Mul", "model_13/tf.nn.convolution_39/convolution/filter", "model_13/tf.math.add_51/Add/y"], "device": "/device:CPU:0", "attr": {"explicit_paddings": {"list": {}}, "num_host_args": {"i": "0"}, "TArgs": {"list": {"type": ["DT_FLOAT"]}}, "fused_ops": {"list": {"s": ["Qmlhc0FkZA=="]}}, "dilations": {"list": {"i": ["1", "1", "1", "1"]}}, "T": {"type": "DT_FLOAT"}, "leakyrelu_alpha": {"f": 0.2}, "data_format": {"s": "TkhXQw=="}, "padding": {"s": "U0FNRQ=="}, "num_args": {"i": "1"}, "use_cudnn_on_gpu": {"b": true}, "strides": {"list": {"i": ["1", "1", "1", "1"]}}, "filter_format": {"s": "SFdJTw=="}, "epsilon": {"f": 0.0}}}, {"name": "model_13/tf.math.multiply_155/Mul", "op": "Mul", "input": ["model_13/tf.math.add_47/Add", "model_13/tf.math.sigmoid_35/Sigmoid"], "attr": {"T": {"type": "DT_FLOAT"}}}, {"name": "model_13/tf.math.sigmoid_38/Sigmoid", "op": "Sigmoid", "input": ["model_13/tf.math.add_50/Add"], "attr": {"T": {"type": "DT_FLOAT"}}}, {"name": "model_13/tf.math.sigmoid_39/Sigmoid", "op": "Sigmoid", "input": ["model_13/tf.math.add_51/Add"], "attr": {"T": {"type": "DT_FLOAT"}}}, {"name": "model_13/tf.concat_9/concat", "op": "ConcatV2", "input": ["model_13/tf.math.multiply_155/Mul", "model_13/tf.math.multiply_135/Mul", "model_13/tf.concat_9/concat/axis"], "attr": {"Tidx": {"type": "DT_INT32"}, "N": {"i": "2"}, "T": {"type": "DT_FLOAT"}}}, {"name": "model_13/tf.math.multiply_167/Mul", "op": "Mul", "input": ["model_13/tf.math.add_50/Add", "model_13/tf.math.sigmoid_38/Sigmoid"], "attr": {"T": {"type": "DT_FLOAT"}}}, {"name": "model_13/tf.math.multiply_171/Mul", "op": "Mul", "input": ["model_13/tf.math.add_51/Add", "model_13/tf.math.sigmoid_39/Sigmoid"], "attr": {"T": {"type": "DT_FLOAT"}}}, {"name": "model_13/tf.math.add_52/Add", "op": "_FusedConv2D", "input": ["model_13/tf.concat_9/concat", "model_13/tf.nn.convolution_40/convolution/filter", "model_13/tf.math.add_52/Add/y"], "device": "/device:CPU:0", "attr": {"num_host_args": {"i": "0"}, "dilations": {"list": {"i": ["1", "1", "1", "1"]}}, "filter_format": {"s": "SFdJTw=="}, "data_format": {"s": "TkhXQw=="}, "explicit_paddings": {"list": {}}, "fused_ops": {"list": {"s": ["Qmlhc0FkZA=="]}}, "strides": {"list": {"i": ["1", "1", "1", "1"]}}, "num_args": {"i": "1"}, "T": {"type": "DT_FLOAT"}, "TArgs": {"list": {"type": ["DT_FLOAT"]}}, "padding": {"s": "U0FNRQ=="}, "epsilon": {"f": 0.0}, "use_cudnn_on_gpu": {"b": true}, "leakyrelu_alpha": {"f": 0.2}}}, {"name": "model_13/tf.math.add_53/Add", "op": "_FusedConv2D", "input": ["model_13/tf.math.multiply_167/Mul", "model_13/tf.nn.convolution_41/convolution/filter", "model_13/tf.math.add_53/Add/y"], "device": "/device:CPU:0", "attr": {"fused_ops": {"list": {"s": ["Qmlhc0FkZA=="]}}, "strides": {"list": {"i": ["1", "1", "1", "1"]}}, "num_args": {"i": "1"}, "data_format": {"s": "TkhXQw=="}, "leakyrelu_alpha": {"f": 0.2}, "use_cudnn_on_gpu": {"b": true}, "num_host_args": {"i": "0"}, "epsilon": {"f": 0.0}, "padding": {"s": "U0FNRQ=="}, "dilations": {"list": {"i": ["1", "1", "1", "1"]}}, "TArgs": {"list": {"type": ["DT_FLOAT"]}}, "explicit_paddings": {"list": {}}, "T": {"type": "DT_FLOAT"}, "filter_format": {"s": "SFdJTw=="}}}, {"name": "model_13/tf.math.add_54/Add", "op": "_FusedConv2D", "input": ["model_13/tf.math.multiply_171/Mul", "model_13/tf.nn.convolution_42/convolution/filter", "model_13/tf.math.add_54/Add/y"], "device": "/device:CPU:0", "attr": {"T": {"type": "DT_FLOAT"}, "num_args": {"i": "1"}, "fused_ops": {"list": {"s": ["Qmlhc0FkZA=="]}}, "leakyrelu_alpha": {"f": 0.2}, "filter_format": {"s": "SFdJTw=="}, "TArgs": {"list": {"type": ["DT_FLOAT"]}}, "data_format": {"s": "TkhXQw=="}, "use_cudnn_on_gpu": {"b": true}, "dilations": {"list": {"i": ["1", "1", "1", "1"]}}, "padding": {"s": "U0FNRQ=="}, "explicit_paddings": {"list": {}}, "epsilon": {"f": 0.0}, "num_host_args": {"i": "0"}, "strides": {"list": {"i": ["1", "1", "1", "1"]}}}}, {"name": "model_13/tf.math.sigmoid_40/Sigmoid", "op": "Sigmoid", "input": ["model_13/tf.math.add_52/Add"], "attr": {"T": {"type": "DT_FLOAT"}}}, {"name": "model_13/tf.concat_10/concat", "op": "ConcatV2", "input": ["model_13/tf.math.add_53/Add", "model_13/tf.math.add_54/Add", "model_13/tf.concat_10/concat/axis"], "attr": {"T": {"type": "DT_FLOAT"}, "Tidx": {"type": "DT_INT32"}, "N": {"i": "2"}}}, {"name": "model_13/tf.math.multiply_175/Mul", "op": "Mul", "input": ["model_13/tf.math.add_52/Add", "model_13/tf.math.sigmoid_40/Sigmoid"], "attr": {"T": {"type": "DT_FLOAT"}}}, {"name": "model_13/tf.compat.v1.transpose_2/transpose", "op": "Transpose", "input": ["model_13/tf.concat_10/concat", "model_13/tf.compat.v1.transpose_2/transpose/perm"], "attr": {"Tperm": {"type": "DT_INT32"}, "T": {"type": "DT_FLOAT"}}}, {"name": "model_13/tf.strided_slice_12/StridedSlice", "op": "StridedSlice", "input": ["model_13/tf.math.multiply_175/Mul", "model_13/tf.strided_slice_12/ones_like/tensor", "model_13/tf.strided_slice_12/StridedSlice/end", "model_13/tf.strided_slice_12/ones_like"], "attr": {"new_axis_mask": {"i": "0"}, "T": {"type": "DT_FLOAT"}, "end_mask": {"i": "7"}, "shrink_axis_mask": {"i": "0"}, "begin_mask": {"i": "15"}, "ellipsis_mask": {"i": "0"}, "Index": {"type": "DT_INT64"}}}, {"name": "model_13/tf.strided_slice_13/StridedSlice", "op": "StridedSlice", "input": ["model_13/tf.math.multiply_175/Mul", "model_13/tf.strided_slice_13/ones_like/tensor", "model_13/tf.strided_slice_13/StridedSlice/end", "model_13/tf.strided_slice_13/ones_like"], "attr": {"end_mask": {"i": "7"}, "Index": {"type": "DT_INT64"}, "ellipsis_mask": {"i": "0"}, "T": {"type": "DT_FLOAT"}, "shrink_axis_mask": {"i": "0"}, "begin_mask": {"i": "7"}, "new_axis_mask": {"i": "0"}}}, {"name": "model_13/tf.reshape_2/Reshape", "op": "Reshape", "input": ["model_13/tf.compat.v1.transpose_2/transpose", "model_13/tf.reshape_2/Reshape/shape"], "attr": {"T": {"type": "DT_FLOAT"}, "Tshape": {"type": "DT_INT32"}}}, {"name": "model_13/tf.math.add_55/Add", "op": "_FusedConv2D", "input": ["model_13/tf.strided_slice_13/StridedSlice", "model_13/tf.nn.convolution_43/convolution/filter", "model_13/tf.math.add_55/Add/y"], "device": "/device:CPU:0", "attr": {"use_cudnn_on_gpu": {"b": true}, "padding": {"s": "U0FNRQ=="}, "num_host_args": {"i": "0"}, "TArgs": {"list": {"type": ["DT_FLOAT"]}}, "data_format": {"s": "TkhXQw=="}, "num_args": {"i": "1"}, "filter_format": {"s": "SFdJTw=="}, "fused_ops": {"list": {"s": ["Qmlhc0FkZA=="]}}, "dilations": {"list": {"i": ["1", "1", "1", "1"]}}, "leakyrelu_alpha": {"f": 0.2}, "explicit_paddings": {"list": {}}, "epsilon": {"f": 0.0}, "T": {"type": "DT_FLOAT"}, "strides": {"list": {"i": ["1", "1", "1", "1"]}}}}, {"name": "model_13/tf.math.sigmoid_41/Sigmoid", "op": "Sigmoid", "input": ["model_13/tf.math.add_55/Add"], "attr": {"T": {"type": "DT_FLOAT"}}}, {"name": "model_13/tf.math.multiply_179/Mul", "op": "Mul", "input": ["model_13/tf.math.add_55/Add", "model_13/tf.math.sigmoid_41/Sigmoid"], "attr": {"T": {"type": "DT_FLOAT"}}}, {"name": "model_13/tf.math.add_56/Add", "op": "_FusedConv2D", "input": ["model_13/tf.math.multiply_179/Mul", "model_13/tf.nn.convolution_44/convolution/filter", "model_13/tf.math.add_56/Add/y"], "device": "/device:CPU:0", "attr": {"data_format": {"s": "TkhXQw=="}, "TArgs": {"list": {"type": ["DT_FLOAT"]}}, "strides": {"list": {"i": ["1", "1", "1", "1"]}}, "explicit_paddings": {"list": {}}, "num_host_args": {"i": "0"}, "epsilon": {"f": 0.0}, "fused_ops": {"list": {"s": ["Qmlhc0FkZA=="]}}, "use_cudnn_on_gpu": {"b": true}, "dilations": {"list": {"i": ["1", "1", "1", "1"]}}, "leakyrelu_alpha": {"f": 0.2}, "num_args": {"i": "1"}, "T": {"type": "DT_FLOAT"}, "filter_format": {"s": "SFdJTw=="}, "padding": {"s": "U0FNRQ=="}}}, {"name": "model_13/tf.math.sigmoid_42/Sigmoid", "op": "Sigmoid", "input": ["model_13/tf.math.add_56/Add"], "attr": {"T": {"type": "DT_FLOAT"}}}, {"name": "model_13/tf.math.multiply_183/Mul", "op": "Mul", "input": ["model_13/tf.math.add_56/Add", "model_13/tf.math.sigmoid_42/Sigmoid"], "attr": {"T": {"type": "DT_FLOAT"}}}, {"name": "model_13/tf.concat_11/concat", "op": "ConcatV2", "input": ["model_13/tf.strided_slice_12/StridedSlice", "model_13/tf.strided_slice_13/StridedSlice", "model_13/tf.math.multiply_183/Mul", "model_13/tf.concat_11/concat/axis"], "attr": {"N": {"i": "3"}, "T": {"type": "DT_FLOAT"}, "Tidx": {"type": "DT_INT32"}}}, {"name": "model_13/tf.math.add_57/Add", "op": "_FusedConv2D", "input": ["model_13/tf.concat_11/concat", "model_13/tf.nn.convolution_45/convolution/filter", "model_13/tf.math.add_57/Add/y"], "device": "/device:CPU:0", "attr": {"epsilon": {"f": 0.0}, "explicit_paddings": {"list": {}}, "fused_ops": {"list": {"s": ["Qmlhc0FkZA=="]}}, "dilations": {"list": {"i": ["1", "1", "1", "1"]}}, "T": {"type": "DT_FLOAT"}, "num_host_args": {"i": "0"}, "num_args": {"i": "1"}, "use_cudnn_on_gpu": {"b": true}, "leakyrelu_alpha": {"f": 0.2}, "padding": {"s": "U0FNRQ=="}, "filter_format": {"s": "SFdJTw=="}, "strides": {"list": {"i": ["1", "1", "1", "1"]}}, "TArgs": {"list": {"type": ["DT_FLOAT"]}}, "data_format": {"s": "TkhXQw=="}}}, {"name": "model_13/tf.math.sigmoid_43/Sigmoid", "op": "Sigmoid", "input": ["model_13/tf.math.add_57/Add"], "attr": {"T": {"type": "DT_FLOAT"}}}, {"name": "model_13/tf.math.multiply_187/Mul", "op": "Mul", "input": ["model_13/tf.math.add_57/Add", "model_13/tf.math.sigmoid_43/Sigmoid"], "attr": {"T": {"type": "DT_FLOAT"}}}, {"name": "model_13/tf.math.add_59/Add", "op": "_FusedConv2D", "input": ["model_13/tf.math.multiply_187/Mul", "model_13/tf.nn.convolution_47/convolution/filter", "model_13/tf.math.add_59/Add/y"], "device": "/device:CPU:0", "attr": {"num_args": {"i": "1"}, "explicit_paddings": {"list": {}}, "strides": {"list": {"i": ["1", "1", "1", "1"]}}, "data_format": {"s": "TkhXQw=="}, "leakyrelu_alpha": {"f": 0.2}, "padding": {"s": "U0FNRQ=="}, "dilations": {"list": {"i": ["1", "1", "1", "1"]}}, "filter_format": {"s": "SFdJTw=="}, "use_cudnn_on_gpu": {"b": true}, "TArgs": {"list": {"type": ["DT_FLOAT"]}}, "fused_ops": {"list": {"s": ["Qmlhc0FkZA=="]}}, "epsilon": {"f": 0.0}, "T": {"type": "DT_FLOAT"}, "num_host_args": {"i": "0"}}}, {"name": "model_13/tf.math.add_60/Add", "op": "_FusedConv2D", "input": ["model_13/tf.math.multiply_187/Mul", "model_13/tf.nn.convolution_48/convolution/filter", "model_13/tf.math.add_60/Add/y"], "device": "/device:CPU:0", "attr": {"num_host_args": {"i": "0"}, "filter_format": {"s": "SFdJTw=="}, "TArgs": {"list": {"type": ["DT_FLOAT"]}}, "epsilon": {"f": 0.0}, "strides": {"list": {"i": ["1", "1", "1", "1"]}}, "dilations": {"list": {"i": ["1", "1", "1", "1"]}}, "data_format": {"s": "TkhXQw=="}, "leakyrelu_alpha": {"f": 0.2}, "T": {"type": "DT_FLOAT"}, "explicit_paddings": {"list": {}}, "num_args": {"i": "1"}, "fused_ops": {"list": {"s": ["Qmlhc0FkZA=="]}}, "padding": {"s": "U0FNRQ=="}, "use_cudnn_on_gpu": {"b": true}}}, {"name": "model_13/tf.compat.v1.pad_6/Pad", "op": "Pad", "input": ["model_13/tf.math.multiply_187/Mul", "model_13/tf.compat.v1.pad_6/Pad/paddings"], "attr": {"T": {"type": "DT_FLOAT"}, "Tpaddings": {"type": "DT_INT32"}}}, {"name": "model_13/tf.math.sigmoid_45/Sigmoid", "op": "Sigmoid", "input": ["model_13/tf.math.add_59/Add"], "attr": {"T": {"type": "DT_FLOAT"}}}, {"name": "model_13/tf.math.sigmoid_46/Sigmoid", "op": "Sigmoid", "input": ["model_13/tf.math.add_60/Add"], "attr": {"T": {"type": "DT_FLOAT"}}}, {"name": "model_13/tf.math.add_58/Add", "op": "_FusedConv2D", "input": ["model_13/tf.compat.v1.pad_6/Pad", "model_13/tf.nn.convolution_46/convolution/filter", "model_13/tf.math.add_58/Add/y"], "device": "/device:CPU:0", "attr": {"use_cudnn_on_gpu": {"b": true}, "strides": {"list": {"i": ["1", "2", "2", "1"]}}, "explicit_paddings": {"list": {}}, "TArgs": {"list": {"type": ["DT_FLOAT"]}}, "fused_ops": {"list": {"s": ["Qmlhc0FkZA=="]}}, "num_args": {"i": "1"}, "epsilon": {"f": 0.0}, "padding": {"s": "VkFMSUQ="}, "leakyrelu_alpha": {"f": 0.2}, "filter_format": {"s": "SFdJTw=="}, "num_host_args": {"i": "0"}, "T": {"type": "DT_FLOAT"}, "dilations": {"list": {"i": ["1", "1", "1", "1"]}}, "data_format": {"s": "TkhXQw=="}}}, {"name": "model_13/tf.math.multiply_195/Mul", "op": "Mul", "input": ["model_13/tf.math.add_59/Add", "model_13/tf.math.sigmoid_45/Sigmoid"], "attr": {"T": {"type": "DT_FLOAT"}}}, {"name": "model_13/tf.math.multiply_199/Mul", "op": "Mul", "input": ["model_13/tf.math.add_60/Add", "model_13/tf.math.sigmoid_46/Sigmoid"], "attr": {"T": {"type": "DT_FLOAT"}}}, {"name": "model_13/tf.math.sigmoid_44/Sigmoid", "op": "Sigmoid", "input": ["model_13/tf.math.add_58/Add"], "attr": {"T": {"type": "DT_FLOAT"}}}, {"name": "model_13/tf.math.add_61/Add", "op": "_FusedConv2D", "input": ["model_13/tf.math.multiply_195/Mul", "model_13/tf.nn.convolution_49/convolution/filter", "model_13/tf.math.add_61/Add/y"], "device": "/device:CPU:0", "attr": {"TArgs": {"list": {"type": ["DT_FLOAT"]}}, "dilations": {"list": {"i": ["1", "1", "1", "1"]}}, "T": {"type": "DT_FLOAT"}, "explicit_paddings": {"list": {}}, "strides": {"list": {"i": ["1", "1", "1", "1"]}}, "leakyrelu_alpha": {"f": 0.2}, "epsilon": {"f": 0.0}, "fused_ops": {"list": {"s": ["Qmlhc0FkZA=="]}}, "num_args": {"i": "1"}, "num_host_args": {"i": "0"}, "use_cudnn_on_gpu": {"b": true}, "filter_format": {"s": "SFdJTw=="}, "padding": {"s": "U0FNRQ=="}, "data_format": {"s": "TkhXQw=="}}}, {"name": "model_13/tf.math.add_62/Add", "op": "_FusedConv2D", "input": ["model_13/tf.math.multiply_199/Mul", "model_13/tf.nn.convolution_50/convolution/filter", "model_13/tf.math.add_62/Add/y"], "device": "/device:CPU:0", "attr": {"explicit_paddings": {"list": {}}, "epsilon": {"f": 0.0}, "num_args": {"i": "1"}, "strides": {"list": {"i": ["1", "1", "1", "1"]}}, "leakyrelu_alpha": {"f": 0.2}, "data_format": {"s": "TkhXQw=="}, "filter_format": {"s": "SFdJTw=="}, "dilations": {"list": {"i": ["1", "1", "1", "1"]}}, "use_cudnn_on_gpu": {"b": true}, "T": {"type": "DT_FLOAT"}, "num_host_args": {"i": "0"}, "TArgs": {"list": {"type": ["DT_FLOAT"]}}, "fused_ops": {"list": {"s": ["Qmlhc0FkZA=="]}}, "padding": {"s": "U0FNRQ=="}}}, {"name": "model_13/tf.math.multiply_191/Mul", "op": "Mul", "input": ["model_13/tf.math.add_58/Add", "model_13/tf.math.sigmoid_44/Sigmoid"], "attr": {"T": {"type": "DT_FLOAT"}}}, {"name": "model_13/tf.math.sigmoid_47/Sigmoid", "op": "Sigmoid", "input": ["model_13/tf.math.add_61/Add"], "attr": {"T": {"type": "DT_FLOAT"}}}, {"name": "model_13/tf.math.sigmoid_48/Sigmoid", "op": "Sigmoid", "input": ["model_13/tf.math.add_62/Add"], "attr": {"T": {"type": "DT_FLOAT"}}}, {"name": "model_13/tf.concat_12/concat", "op": "ConcatV2", "input": ["model_13/tf.math.multiply_191/Mul", "model_13/tf.math.multiply_119/Mul", "model_13/tf.concat_12/concat/axis"], "attr": {"Tidx": {"type": "DT_INT32"}, "N": {"i": "2"}, "T": {"type": "DT_FLOAT"}}}, {"name": "model_13/tf.math.multiply_203/Mul", "op": "Mul", "input": ["model_13/tf.math.add_61/Add", "model_13/tf.math.sigmoid_47/Sigmoid"], "attr": {"T": {"type": "DT_FLOAT"}}}, {"name": "model_13/tf.math.multiply_207/Mul", "op": "Mul", "input": ["model_13/tf.math.add_62/Add", "model_13/tf.math.sigmoid_48/Sigmoid"], "attr": {"T": {"type": "DT_FLOAT"}}}, {"name": "model_13/tf.math.add_63/Add", "op": "_FusedConv2D", "input": ["model_13/tf.concat_12/concat", "model_13/tf.nn.convolution_51/convolution/filter", "model_13/tf.math.add_63/Add/y"], "device": "/device:CPU:0", "attr": {"use_cudnn_on_gpu": {"b": true}, "T": {"type": "DT_FLOAT"}, "leakyrelu_alpha": {"f": 0.2}, "padding": {"s": "U0FNRQ=="}, "explicit_paddings": {"list": {}}, "num_args": {"i": "1"}, "num_host_args": {"i": "0"}, "epsilon": {"f": 0.0}, "strides": {"list": {"i": ["1", "1", "1", "1"]}}, "TArgs": {"list": {"type": ["DT_FLOAT"]}}, "data_format": {"s": "TkhXQw=="}, "dilations": {"list": {"i": ["1", "1", "1", "1"]}}, "fused_ops": {"list": {"s": ["Qmlhc0FkZA=="]}}, "filter_format": {"s": "SFdJTw=="}}}, {"name": "model_13/tf.math.add_64/Add", "op": "_FusedConv2D", "input": ["model_13/tf.math.multiply_203/Mul", "model_13/tf.nn.convolution_52/convolution/filter", "model_13/tf.math.add_64/Add/y"], "device": "/device:CPU:0", "attr": {"strides": {"list": {"i": ["1", "1", "1", "1"]}}, "epsilon": {"f": 0.0}, "dilations": {"list": {"i": ["1", "1", "1", "1"]}}, "num_args": {"i": "1"}, "padding": {"s": "U0FNRQ=="}, "T": {"type": "DT_FLOAT"}, "fused_ops": {"list": {"s": ["Qmlhc0FkZA=="]}}, "explicit_paddings": {"list": {}}, "TArgs": {"list": {"type": ["DT_FLOAT"]}}, "use_cudnn_on_gpu": {"b": true}, "filter_format": {"s": "SFdJTw=="}, "num_host_args": {"i": "0"}, "leakyrelu_alpha": {"f": 0.2}, "data_format": {"s": "TkhXQw=="}}}, {"name": "model_13/tf.math.add_65/Add", "op": "_FusedConv2D", "input": ["model_13/tf.math.multiply_207/Mul", "model_13/tf.nn.convolution_53/convolution/filter", "model_13/tf.math.add_65/Add/y"], "device": "/device:CPU:0", "attr": {"use_cudnn_on_gpu": {"b": true}, "TArgs": {"list": {"type": ["DT_FLOAT"]}}, "data_format": {"s": "TkhXQw=="}, "explicit_paddings": {"list": {}}, "filter_format": {"s": "SFdJTw=="}, "strides": {"list": {"i": ["1", "1", "1", "1"]}}, "num_host_args": {"i": "0"}, "num_args": {"i": "1"}, "leakyrelu_alpha": {"f": 0.2}, "fused_ops": {"list": {"s": ["Qmlhc0FkZA=="]}}, "epsilon": {"f": 0.0}, "padding": {"s": "U0FNRQ=="}, "dilations": {"list": {"i": ["1", "1", "1", "1"]}}, "T": {"type": "DT_FLOAT"}}}, {"name": "model_13/tf.math.sigmoid_49/Sigmoid", "op": "Sigmoid", "input": ["model_13/tf.math.add_63/Add"], "attr": {"T": {"type": "DT_FLOAT"}}}, {"name": "model_13/tf.concat_13/concat", "op": "ConcatV2", "input": ["model_13/tf.math.add_64/Add", "model_13/tf.math.add_65/Add", "model_13/tf.concat_13/concat/axis"], "attr": {"Tidx": {"type": "DT_INT32"}, "N": {"i": "2"}, "T": {"type": "DT_FLOAT"}}}, {"name": "model_13/tf.math.multiply_211/Mul", "op": "Mul", "input": ["model_13/tf.math.add_63/Add", "model_13/tf.math.sigmoid_49/Sigmoid"], "attr": {"T": {"type": "DT_FLOAT"}}}, {"name": "model_13/tf.compat.v1.transpose_7/transpose", "op": "Transpose", "input": ["model_13/tf.concat_13/concat", "model_13/tf.compat.v1.transpose_7/transpose/perm"], "attr": {"Tperm": {"type": "DT_INT32"}, "T": {"type": "DT_FLOAT"}}}, {"name": "model_13/tf.strided_slice_14/StridedSlice", "op": "StridedSlice", "input": ["model_13/tf.math.multiply_211/Mul", "model_13/tf.strided_slice_14/ones_like/tensor", "model_13/tf.strided_slice_14/StridedSlice/end", "model_13/tf.strided_slice_14/ones_like"], "attr": {"new_axis_mask": {"i": "0"}, "begin_mask": {"i": "15"}, "shrink_axis_mask": {"i": "0"}, "ellipsis_mask": {"i": "0"}, "T": {"type": "DT_FLOAT"}, "end_mask": {"i": "7"}, "Index": {"type": "DT_INT64"}}}, {"name": "model_13/tf.strided_slice_15/StridedSlice", "op": "StridedSlice", "input": ["model_13/tf.math.multiply_211/Mul", "model_13/tf.strided_slice_15/ones_like/tensor", "model_13/tf.strided_slice_15/StridedSlice/end", "model_13/tf.strided_slice_15/ones_like"], "attr": {"end_mask": {"i": "7"}, "T": {"type": "DT_FLOAT"}, "ellipsis_mask": {"i": "0"}, "shrink_axis_mask": {"i": "0"}, "begin_mask": {"i": "7"}, "Index": {"type": "DT_INT64"}, "new_axis_mask": {"i": "0"}}}, {"name": "model_13/tf.reshape_5/Reshape", "op": "Reshape", "input": ["model_13/tf.compat.v1.transpose_7/transpose", "model_13/tf.reshape_5/Reshape/shape"], "attr": {"Tshape": {"type": "DT_INT32"}, "T": {"type": "DT_FLOAT"}}}, {"name": "model_13/tf.math.add_66/Add", "op": "_FusedConv2D", "input": ["model_13/tf.strided_slice_15/StridedSlice", "model_13/tf.nn.convolution_54/convolution/filter", "model_13/tf.math.add_66/Add/y"], "device": "/device:CPU:0", "attr": {"TArgs": {"list": {"type": ["DT_FLOAT"]}}, "explicit_paddings": {"list": {}}, "num_args": {"i": "1"}, "filter_format": {"s": "SFdJTw=="}, "dilations": {"list": {"i": ["1", "1", "1", "1"]}}, "strides": {"list": {"i": ["1", "1", "1", "1"]}}, "epsilon": {"f": 0.0}, "leakyrelu_alpha": {"f": 0.2}, "T": {"type": "DT_FLOAT"}, "data_format": {"s": "TkhXQw=="}, "padding": {"s": "U0FNRQ=="}, "num_host_args": {"i": "0"}, "use_cudnn_on_gpu": {"b": true}, "fused_ops": {"list": {"s": ["Qmlhc0FkZA=="]}}}}, {"name": "model_13/tf.math.sigmoid_50/Sigmoid", "op": "Sigmoid", "input": ["model_13/tf.math.add_66/Add"], "attr": {"T": {"type": "DT_FLOAT"}}}, {"name": "model_13/tf.math.multiply_215/Mul", "op": "Mul", "input": ["model_13/tf.math.add_66/Add", "model_13/tf.math.sigmoid_50/Sigmoid"], "attr": {"T": {"type": "DT_FLOAT"}}}, {"name": "model_13/tf.math.add_67/Add", "op": "_FusedConv2D", "input": ["model_13/tf.math.multiply_215/Mul", "model_13/tf.nn.convolution_55/convolution/filter", "model_13/tf.math.add_67/Add/y"], "device": "/device:CPU:0", "attr": {"epsilon": {"f": 0.0}, "num_args": {"i": "1"}, "num_host_args": {"i": "0"}, "padding": {"s": "U0FNRQ=="}, "fused_ops": {"list": {"s": ["Qmlhc0FkZA=="]}}, "explicit_paddings": {"list": {}}, "filter_format": {"s": "SFdJTw=="}, "T": {"type": "DT_FLOAT"}, "leakyrelu_alpha": {"f": 0.2}, "dilations": {"list": {"i": ["1", "1", "1", "1"]}}, "strides": {"list": {"i": ["1", "1", "1", "1"]}}, "TArgs": {"list": {"type": ["DT_FLOAT"]}}, "data_format": {"s": "TkhXQw=="}, "use_cudnn_on_gpu": {"b": true}}}, {"name": "model_13/tf.math.sigmoid_51/Sigmoid", "op": "Sigmoid", "input": ["model_13/tf.math.add_67/Add"], "attr": {"T": {"type": "DT_FLOAT"}}}, {"name": "model_13/tf.math.multiply_219/Mul", "op": "Mul", "input": ["model_13/tf.math.add_67/Add", "model_13/tf.math.sigmoid_51/Sigmoid"], "attr": {"T": {"type": "DT_FLOAT"}}}, {"name": "model_13/tf.concat_14/concat", "op": "ConcatV2", "input": ["model_13/tf.strided_slice_14/StridedSlice", "model_13/tf.strided_slice_15/StridedSlice", "model_13/tf.math.multiply_219/Mul", "model_13/tf.concat_14/concat/axis"], "attr": {"Tidx": {"type": "DT_INT32"}, "T": {"type": "DT_FLOAT"}, "N": {"i": "3"}}}, {"name": "model_13/tf.math.add_68/Add", "op": "_FusedConv2D", "input": ["model_13/tf.concat_14/concat", "model_13/tf.nn.convolution_56/convolution/filter", "model_13/tf.math.add_68/Add/y"], "device": "/device:CPU:0", "attr": {"strides": {"list": {"i": ["1", "1", "1", "1"]}}, "fused_ops": {"list": {"s": ["Qmlhc0FkZA=="]}}, "TArgs": {"list": {"type": ["DT_FLOAT"]}}, "use_cudnn_on_gpu": {"b": true}, "data_format": {"s": "TkhXQw=="}, "epsilon": {"f": 0.0}, "T": {"type": "DT_FLOAT"}, "explicit_paddings": {"list": {}}, "padding": {"s": "U0FNRQ=="}, "dilations": {"list": {"i": ["1", "1", "1", "1"]}}, "filter_format": {"s": "SFdJTw=="}, "num_host_args": {"i": "0"}, "num_args": {"i": "1"}, "leakyrelu_alpha": {"f": 0.2}}}, {"name": "model_13/tf.math.sigmoid_52/Sigmoid", "op": "Sigmoid", "input": ["model_13/tf.math.add_68/Add"], "attr": {"T": {"type": "DT_FLOAT"}}}, {"name": "model_13/tf.math.multiply_223/Mul", "op": "Mul", "input": ["model_13/tf.math.add_68/Add", "model_13/tf.math.sigmoid_52/Sigmoid"], "attr": {"T": {"type": "DT_FLOAT"}}}, {"name": "model_13/tf.math.add_69/Add", "op": "_FusedConv2D", "input": ["model_13/tf.math.multiply_223/Mul", "model_13/tf.nn.convolution_57/convolution/filter", "model_13/tf.math.add_69/Add/y"], "device": "/device:CPU:0", "attr": {"num_args": {"i": "1"}, "strides": {"list": {"i": ["1", "1", "1", "1"]}}, "filter_format": {"s": "SFdJTw=="}, "dilations": {"list": {"i": ["1", "1", "1", "1"]}}, "padding": {"s": "U0FNRQ=="}, "use_cudnn_on_gpu": {"b": true}, "T": {"type": "DT_FLOAT"}, "explicit_paddings": {"list": {}}, "fused_ops": {"list": {"s": ["Qmlhc0FkZA=="]}}, "TArgs": {"list": {"type": ["DT_FLOAT"]}}, "leakyrelu_alpha": {"f": 0.2}, "data_format": {"s": "TkhXQw=="}, "num_host_args": {"i": "0"}, "epsilon": {"f": 0.0}}}, {"name": "model_13/tf.math.add_70/Add", "op": "_FusedConv2D", "input": ["model_13/tf.math.multiply_223/Mul", "model_13/tf.nn.convolution_58/convolution/filter", "model_13/tf.math.add_70/Add/y"], "device": "/device:CPU:0", "attr": {"use_cudnn_on_gpu": {"b": true}, "T": {"type": "DT_FLOAT"}, "leakyrelu_alpha": {"f": 0.2}, "TArgs": {"list": {"type": ["DT_FLOAT"]}}, "dilations": {"list": {"i": ["1", "1", "1", "1"]}}, "explicit_paddings": {"list": {}}, "num_args": {"i": "1"}, "padding": {"s": "U0FNRQ=="}, "data_format": {"s": "TkhXQw=="}, "strides": {"list": {"i": ["1", "1", "1", "1"]}}, "filter_format": {"s": "SFdJTw=="}, "epsilon": {"f": 0.0}, "fused_ops": {"list": {"s": ["Qmlhc0FkZA=="]}}, "num_host_args": {"i": "0"}}}, {"name": "model_13/tf.math.sigmoid_53/Sigmoid", "op": "Sigmoid", "input": ["model_13/tf.math.add_69/Add"], "attr": {"T": {"type": "DT_FLOAT"}}}, {"name": "model_13/tf.math.sigmoid_54/Sigmoid", "op": "Sigmoid", "input": ["model_13/tf.math.add_70/Add"], "attr": {"T": {"type": "DT_FLOAT"}}}, {"name": "model_13/tf.math.multiply_227/Mul", "op": "Mul", "input": ["model_13/tf.math.add_69/Add", "model_13/tf.math.sigmoid_53/Sigmoid"], "attr": {"T": {"type": "DT_FLOAT"}}}, {"name": "model_13/tf.math.multiply_231/Mul", "op": "Mul", "input": ["model_13/tf.math.add_70/Add", "model_13/tf.math.sigmoid_54/Sigmoid"], "attr": {"T": {"type": "DT_FLOAT"}}}, {"name": "model_13/tf.math.add_71/Add", "op": "_FusedConv2D", "input": ["model_13/tf.math.multiply_227/Mul", "model_13/tf.nn.convolution_59/convolution/filter", "model_13/tf.math.add_71/Add/y"], "device": "/device:CPU:0", "attr": {"strides": {"list": {"i": ["1", "1", "1", "1"]}}, "use_cudnn_on_gpu": {"b": true}, "data_format": {"s": "TkhXQw=="}, "dilations": {"list": {"i": ["1", "1", "1", "1"]}}, "explicit_paddings": {"list": {}}, "num_host_args": {"i": "0"}, "epsilon": {"f": 0.0}, "num_args": {"i": "1"}, "leakyrelu_alpha": {"f": 0.2}, "T": {"type": "DT_FLOAT"}, "padding": {"s": "U0FNRQ=="}, "fused_ops": {"list": {"s": ["Qmlhc0FkZA=="]}}, "TArgs": {"list": {"type": ["DT_FLOAT"]}}, "filter_format": {"s": "SFdJTw=="}}}, {"name": "model_13/tf.math.add_72/Add", "op": "_FusedConv2D", "input": ["model_13/tf.math.multiply_231/Mul", "model_13/tf.nn.convolution_60/convolution/filter", "model_13/tf.math.add_72/Add/y"], "device": "/device:CPU:0", "attr": {"T": {"type": "DT_FLOAT"}, "explicit_paddings": {"list": {}}, "fused_ops": {"list": {"s": ["Qmlhc0FkZA=="]}}, "use_cudnn_on_gpu": {"b": true}, "leakyrelu_alpha": {"f": 0.2}, "padding": {"s": "U0FNRQ=="}, "filter_format": {"s": "SFdJTw=="}, "num_args": {"i": "1"}, "strides": {"list": {"i": ["1", "1", "1", "1"]}}, "data_format": {"s": "TkhXQw=="}, "num_host_args": {"i": "0"}, "dilations": {"list": {"i": ["1", "1", "1", "1"]}}, "epsilon": {"f": 0.0}, "TArgs": {"list": {"type": ["DT_FLOAT"]}}}}, {"name": "model_13/tf.math.sigmoid_55/Sigmoid", "op": "Sigmoid", "input": ["model_13/tf.math.add_71/Add"], "attr": {"T": {"type": "DT_FLOAT"}}}, {"name": "model_13/tf.math.sigmoid_56/Sigmoid", "op": "Sigmoid", "input": ["model_13/tf.math.add_72/Add"], "attr": {"T": {"type": "DT_FLOAT"}}}, {"name": "model_13/tf.math.multiply_235/Mul", "op": "Mul", "input": ["model_13/tf.math.add_71/Add", "model_13/tf.math.sigmoid_55/Sigmoid"], "attr": {"T": {"type": "DT_FLOAT"}}}, {"name": "model_13/tf.math.multiply_239/Mul", "op": "Mul", "input": ["model_13/tf.math.add_72/Add", "model_13/tf.math.sigmoid_56/Sigmoid"], "attr": {"T": {"type": "DT_FLOAT"}}}, {"name": "model_13/tf.math.add_73/Add", "op": "_FusedConv2D", "input": ["model_13/tf.math.multiply_235/Mul", "model_13/tf.nn.convolution_61/convolution/filter", "model_13/tf.math.add_73/Add/y"], "device": "/device:CPU:0", "attr": {"strides": {"list": {"i": ["1", "1", "1", "1"]}}, "TArgs": {"list": {"type": ["DT_FLOAT"]}}, "data_format": {"s": "TkhXQw=="}, "epsilon": {"f": 0.0}, "T": {"type": "DT_FLOAT"}, "fused_ops": {"list": {"s": ["Qmlhc0FkZA=="]}}, "dilations": {"list": {"i": ["1", "1", "1", "1"]}}, "num_args": {"i": "1"}, "leakyrelu_alpha": {"f": 0.2}, "filter_format": {"s": "SFdJTw=="}, "padding": {"s": "U0FNRQ=="}, "use_cudnn_on_gpu": {"b": true}, "explicit_paddings": {"list": {}}, "num_host_args": {"i": "0"}}}, {"name": "model_13/tf.math.add_74/Add", "op": "_FusedConv2D", "input": ["model_13/tf.math.multiply_239/Mul", "model_13/tf.nn.convolution_62/convolution/filter", "model_13/tf.math.add_74/Add/y"], "device": "/device:CPU:0", "attr": {"dilations": {"list": {"i": ["1", "1", "1", "1"]}}, "filter_format": {"s": "SFdJTw=="}, "strides": {"list": {"i": ["1", "1", "1", "1"]}}, "data_format": {"s": "TkhXQw=="}, "leakyrelu_alpha": {"f": 0.2}, "T": {"type": "DT_FLOAT"}, "use_cudnn_on_gpu": {"b": true}, "epsilon": {"f": 0.0}, "padding": {"s": "U0FNRQ=="}, "fused_ops": {"list": {"s": ["Qmlhc0FkZA=="]}}, "num_args": {"i": "1"}, "explicit_paddings": {"list": {}}, "TArgs": {"list": {"type": ["DT_FLOAT"]}}, "num_host_args": {"i": "0"}}}, {"name": "model_13/tf.concat_15/concat", "op": "ConcatV2", "input": ["model_13/tf.math.add_73/Add", "model_13/tf.math.add_74/Add", "model_13/tf.concat_15/concat/axis"], "attr": {"N": {"i": "2"}, "Tidx": {"type": "DT_INT32"}, "T": {"type": "DT_FLOAT"}}}, {"name": "model_13/tf.compat.v1.transpose_12/transpose", "op": "Transpose", "input": ["model_13/tf.concat_15/concat", "model_13/tf.compat.v1.transpose_12/transpose/perm"], "attr": {"Tperm": {"type": "DT_INT32"}, "T": {"type": "DT_FLOAT"}}}, {"name": "model_13/tf.reshape_8/Reshape", "op": "Reshape", "input": ["model_13/tf.compat.v1.transpose_12/transpose", "model_13/tf.reshape_8/Reshape/shape"], "attr": {"Tshape": {"type": "DT_INT32"}, "T": {"type": "DT_FLOAT"}}}, {"name": "model_13/tf.concat_16/concat", "op": "ConcatV2", "input": ["model_13/tf.reshape_2/Reshape", "model_13/tf.reshape_5/Reshape", "model_13/tf.reshape_8/Reshape", "model_13/tf.concat_16/concat/axis"], "attr": {"N": {"i": "3"}, "T": {"type": "DT_FLOAT"}, "Tidx": {"type": "DT_INT32"}}}, {"name": "model_13/tf.strided_slice_17/StridedSlice", "op": "StridedSlice", "input": ["model_13/tf.concat_16/concat", "model_13/tf.strided_slice_17/StridedSlice/begin", "model_13/tf.strided_slice_17/StridedSlice/end", "model_13/tf.strided_slice_17/StridedSlice/strides"], "attr": {"new_axis_mask": {"i": "0"}, "begin_mask": {"i": "5"}, "ellipsis_mask": {"i": "0"}, "Index": {"type": "DT_INT64"}, "T": {"type": "DT_FLOAT"}, "shrink_axis_mask": {"i": "0"}, "end_mask": {"i": "5"}}}, {"name": "model_13/tf.strided_slice_16/StridedSlice", "op": "StridedSlice", "input": ["model_13/tf.concat_16/concat", "model_13/tf.strided_slice_16/StridedSlice/begin", "model_13/tf.strided_slice_16/StridedSlice/end", "model_13/tf.strided_slice_16/StridedSlice/strides"], "attr": {"ellipsis_mask": {"i": "0"}, "end_mask": {"i": "5"}, "begin_mask": {"i": "7"}, "Index": {"type": "DT_INT64"}, "new_axis_mask": {"i": "0"}, "T": {"type": "DT_FLOAT"}, "shrink_axis_mask": {"i": "0"}}}, {"name": "model_13/tf.math.sigmoid_57/Sigmoid", "op": "Sigmoid", "input": ["model_13/tf.strided_slice_17/StridedSlice"], "attr": {"T": {"type": "DT_FLOAT"}}}, {"name": "model_13/tf.reshape_11/Reshape", "op": "Reshape", "input": ["model_13/tf.strided_slice_16/StridedSlice", "model_13/tf.reshape_11/Reshape/shape"], "attr": {"T": {"type": "DT_FLOAT"}, "Tshape": {"type": "DT_INT32"}}}, {"name": "model_13/tf.compat.v1.transpose_19/transpose", "op": "Transpose", "input": ["model_13/tf.reshape_11/Reshape", "model_13/tf.compat.v1.transpose_19/transpose/perm"], "attr": {"Tperm": {"type": "DT_INT32"}, "T": {"type": "DT_FLOAT"}}}, {"name": "model_13/tf.compat.v1.transpose_20/transpose", "op": "Transpose", "input": ["model_13/tf.compat.v1.transpose_19/transpose", "model_13/tf.compat.v1.transpose_20/transpose/perm"], "attr": {"Tperm": {"type": "DT_INT32"}, "T": {"type": "DT_FLOAT"}}}, {"name": "model_13/tf.nn.softmax/wa/model.22/dfl/Softmax", "op": "Softmax", "input": ["model_13/tf.compat.v1.transpose_20/transpose"], "attr": {"T": {"type": "DT_FLOAT"}}}, {"name": "model_13/tf.nn.convolution_63/convolution", "op": "Conv2D", "input": ["model_13/tf.nn.softmax/wa/model.22/dfl/Softmax", "model_13/tf.nn.convolution_63/convolution/filter"], "device": "/device:CPU:0", "attr": {"T": {"type": "DT_FLOAT"}, "data_format": {"s": "TkhXQw=="}, "strides": {"list": {"i": ["1", "1", "1", "1"]}}, "use_cudnn_on_gpu": {"b": true}, "dilations": {"list": {"i": ["1", "1", "1", "1"]}}, "explicit_paddings": {"list": {}}, "padding": {"s": "U0FNRQ=="}}}, {"name": "model_13/tf.compat.v1.transpose_25/transpose", "op": "Transpose", "input": ["model_13/tf.nn.convolution_63/convolution", "model_13/tf.compat.v1.transpose_25/transpose/perm"], "attr": {"Tperm": {"type": "DT_INT32"}, "T": {"type": "DT_FLOAT"}}}, {"name": "model_13/tf.reshape_14/Reshape", "op": "Reshape", "input": ["model_13/tf.compat.v1.transpose_25/transpose", "model_13/tf.reshape_14/Reshape/shape"], "attr": {"Tshape": {"type": "DT_INT32"}, "T": {"type": "DT_FLOAT"}}}, {"name": "model_13/tf.strided_slice_19/StridedSlice", "op": "StridedSlice", "input": ["model_13/tf.reshape_14/Reshape", "model_13/tf.strided_slice_19/ones_like/tensor", "model_13/tf.strided_slice_19/StridedSlice/end", "model_13/tf.strided_slice_19/ones_like"], "attr": {"new_axis_mask": {"i": "0"}, "shrink_axis_mask": {"i": "0"}, "begin_mask": {"i": "5"}, "T": {"type": "DT_FLOAT"}, "Index": {"type": "DT_INT64"}, "end_mask": {"i": "5"}, "ellipsis_mask": {"i": "0"}}}, {"name": "model_13/tf.strided_slice_18/StridedSlice", "op": "StridedSlice", "input": ["model_13/tf.reshape_14/Reshape", "model_13/tf.strided_slice_18/ones_like/tensor", "model_13/tf.strided_slice_18/StridedSlice/end", "model_13/tf.strided_slice_18/ones_like"], "attr": {"end_mask": {"i": "5"}, "begin_mask": {"i": "7"}, "ellipsis_mask": {"i": "0"}, "T": {"type": "DT_FLOAT"}, "new_axis_mask": {"i": "0"}, "shrink_axis_mask": {"i": "0"}, "Index": {"type": "DT_INT64"}}}, {"name": "model_13/tf.math.add_75/Add", "op": "AddV2", "input": ["model_13/24327", "model_13/tf.strided_slice_19/StridedSlice"], "attr": {"T": {"type": "DT_FLOAT"}}}, {"name": "model_13/tf.math.subtract/Sub", "op": "Sub", "input": ["model_13/24330", "model_13/tf.strided_slice_18/StridedSlice"], "attr": {"T": {"type": "DT_FLOAT"}}}, {"name": "model_13/tf.math.add_76/Add", "op": "AddV2", "input": ["model_13/tf.math.subtract/Sub", "model_13/tf.math.add_75/Add"], "attr": {"T": {"type": "DT_FLOAT"}}}, {"name": "model_13/tf.math.subtract_1/Sub", "op": "Sub", "input": ["model_13/tf.math.add_75/Add", "model_13/tf.math.subtract/Sub"], "attr": {"T": {"type": "DT_FLOAT"}}}, {"name": "model_13/tf.math.divide/truediv", "op": "Mul", "input": ["model_13/tf.math.add_76/Add", "ConstantFolding/model_13/tf.math.divide/truediv_recip"], "attr": {"T": {"type": "DT_FLOAT"}}}, {"name": "model_13/tf.concat_20/concat", "op": "ConcatV2", "input": ["model_13/tf.math.divide/truediv", "model_13/tf.math.subtract_1/Sub", "model_13/tf.concat_20/concat/axis"], "attr": {"N": {"i": "2"}, "T": {"type": "DT_FLOAT"}, "Tidx": {"type": "DT_INT32"}}}, {"name": "model_13/tf.math.multiply_252/Mul", "op": "Mul", "input": ["model_13/tf.concat_20/concat", "model_13/tf.math.multiply_252/Mul/y"], "attr": {"T": {"type": "DT_FLOAT"}}}, {"name": "model_13/output0/concat", "op": "ConcatV2", "input": ["model_13/tf.math.multiply_252/Mul", "model_13/tf.math.sigmoid_57/Sigmoid", "model_13/output0/concat/axis"], "attr": {"T": {"type": "DT_FLOAT"}, "N": {"i": "2"}, "Tidx": {"type": "DT_INT32"}}}, {"name": "Identity", "op": "Identity", "input": ["model_13/output0/concat"], "attr": {"T": {"type": "DT_FLOAT"}}}], "library": {}, "versions": {"producer": 1882}}, "weightsManifest": [{"paths": ["group1-shard1of1.bin"], "weights": [{"name": "ConstantFolding/model_13/tf.math.divide/truediv_recip", "shape": [1, 1, 1], "dtype": "float32", "quantization": {"dtype": "uint8", "min": 0.5, "scale": 1.0, "original_dtype": "float32"}}, {"name": "model_13/24327", "shape": [1, 2, 2100], "dtype": "float32", "quantization": {"dtype": "uint8", "min": 0.5, "scale": 0.15294117647058825, "original_dtype": "float32"}}, {"name": "model_13/tf.strided_slice_19/ones_like/tensor", "shape": [3], "dtype": "int32"}, {"name": "model_13/tf.strided_slice_19/StridedSlice/end", "shape": [3], "dtype": "int32"}, {"name": "model_13/tf.strided_slice_19/ones_like", "shape": [3], "dtype": "int32"}, {"name": "model_13/24330", "shape": [1, 2, 2100], "dtype": "float32", "quantization": {"dtype": "uint8", "min": 0.5, "scale": 0.15294117647058825, "original_dtype": "float32"}}, {"name": "model_13/tf.strided_slice_16/StridedSlice/begin", "shape": [3], "dtype": "int32"}, {"name": "model_13/tf.strided_slice_16/StridedSlice/end", "shape": [3], "dtype": "int32"}, {"name": "model_13/tf.strided_slice_16/StridedSlice/strides", "shape": [3], "dtype": "int32"}, {"name": "model_13/tf.reshape_11/Reshape/shape", "shape": [4], "dtype": "int32"}, {"name": "model_13/tf.compat.v1.transpose_19/transpose/perm", "shape": [4], "dtype": "int32"}, {"name": "model_13/tf.compat.v1.transpose_20/transpose/perm", "shape": [4], "dtype": "int32"}, {"name": "model_13/tf.nn.convolution_63/convolution/filter", "shape": [1, 1, 16, 1], "dtype": "float32", "quantization": {"dtype": "uint8", "min": -0.0, "scale": 0.058823529411764705, "original_dtype": "float32"}}, {"name": "model_13/tf.compat.v1.transpose_25/transpose/perm", "shape": [4], "dtype": "int32"}, {"name": "model_13/tf.reshape_14/Reshape/shape", "shape": [3], "dtype": "int32"}, {"name": "model_13/tf.strided_slice_18/ones_like/tensor", "shape": [3], "dtype": "int32"}, {"name": "model_13/tf.strided_slice_18/StridedSlice/end", "shape": [3], "dtype": "int32"}, {"name": "model_13/tf.strided_slice_18/ones_like", "shape": [3], "dtype": "int32"}, {"name": "model_13/tf.concat_20/concat/axis", "shape": [], "dtype": "int32"}, {"name": "model_13/tf.math.multiply_252/Mul/y", "shape": [1, 1, 2100], "dtype": "float32", "quantization": {"dtype": "uint8", "min": 8.0, "scale": 0.09411764705882353, "original_dtype": "float32"}}, {"name": "model_13/tf.nn.convolution_36/convolution/filter", "shape": [3, 3, 64, 64], "dtype": "float32", "quantization": {"dtype": "uint8", "min": -0.6241294662157694, "scale": 0.005244785430384617, "original_dtype": "float32"}}, {"name": "model_13/tf.math.add_48/Add/y", "shape": [64], "dtype": "float32", "quantization": {"dtype": "uint8", "min": -4.239560442344815, "scale": 0.02700356969646379, "original_dtype": "float32"}}, {"name": "model_13/tf.nn.convolution_38/convolution/filter", "shape": [3, 3, 64, 64], "dtype": "float32", "quantization": {"dtype": "uint8", "min": -0.7634881664724911, "scale": 0.0065255398843802655, "original_dtype": "float32"}}, {"name": "model_13/tf.math.add_50/Add/y", "shape": [64], "dtype": "float32", "quantization": {"dtype": "uint8", "min": -2.0550981633803422, "scale": 0.01631030288397097, "original_dtype": "float32"}}, {"name": "model_13/tf.nn.convolution_41/convolution/filter", "shape": [1, 1, 64, 64], "dtype": "float32", "quantization": {"dtype": "uint8", "min": -0.5608149509803921, "scale": 0.003505093443627451, "original_dtype": "float32"}}, {"name": "model_13/tf.math.add_53/Add/y", "shape": [64], "dtype": "float32", "quantization": {"dtype": "uint8", "min": -1.3347005208333331, "scale": 0.016080729166666665, "original_dtype": "float32"}}, {"name": "model_13/tf.nn.convolution_37/convolution/filter", "shape": [3, 3, 64, 64], "dtype": "float32", "quantization": {"dtype": "uint8", "min": -0.3453772541354684, "scale": 0.003111506794013229, "original_dtype": "float32"}}, {"name": "model_13/tf.math.add_49/Add/y", "shape": [64], "dtype": "float32", "quantization": {"dtype": "uint8", "min": -3.8891698547438076, "scale": 0.038506632225186216, "original_dtype": "float32"}}, {"name": "model_13/tf.nn.convolution_39/convolution/filter", "shape": [3, 3, 64, 64], "dtype": "float32", "quantization": {"dtype": "uint8", "min": -0.18004833231954015, "scale": 0.0016826946945751415, "original_dtype": "float32"}}, {"name": "model_13/tf.math.add_51/Add/y", "shape": [64], "dtype": "float32", "quantization": {"dtype": "uint8", "min": -0.5518879726821301, "scale": 0.011037759453642602, "original_dtype": "float32"}}, {"name": "model_13/tf.nn.convolution_42/convolution/filter", "shape": [1, 1, 64, 1], "dtype": "float32", "quantization": {"dtype": "uint8", "min": -0.558837890625, "scale": 0.0026611328125, "original_dtype": "float32"}}, {"name": "model_13/tf.math.add_54/Add/y", "shape": [1], "dtype": "float32", "quantization": {"dtype": "uint8", "min": -7.30859375, "scale": 1.0, "original_dtype": "float32"}}, {"name": "model_13/tf.concat_10/concat/axis", "shape": [], "dtype": "int32"}, {"name": "model_13/tf.compat.v1.transpose_2/transpose/perm", "shape": [4], "dtype": "int32"}, {"name": "model_13/tf.reshape_2/Reshape/shape", "shape": [3], "dtype": "int32"}, {"name": "model_13/tf.nn.convolution_47/convolution/filter", "shape": [3, 3, 128, 64], "dtype": "float32", "quantization": {"dtype": "uint8", "min": -0.8970721643345029, "scale": 0.005185388233147415, "original_dtype": "float32"}}, {"name": "model_13/tf.math.add_59/Add/y", "shape": [64], "dtype": "float32", "quantization": {"dtype": "uint8", "min": -5.698440308664359, "scale": 0.029834766013949524, "original_dtype": "float32"}}, {"name": "model_13/tf.nn.convolution_49/convolution/filter", "shape": [3, 3, 64, 64], "dtype": "float32", "quantization": {"dtype": "uint8", "min": -1.0890455545163622, "scale": 0.00892660290587182, "original_dtype": "float32"}}, {"name": "model_13/tf.math.add_61/Add/y", "shape": [64], "dtype": "float32", "quantization": {"dtype": "uint8", "min": -0.4927052778356215, "scale": 0.027372515435312307, "original_dtype": "float32"}}, {"name": "model_13/tf.nn.convolution_52/convolution/filter", "shape": [1, 1, 64, 64], "dtype": "float32", "quantization": {"dtype": "uint8", "min": -0.9155254289215685, "scale": 0.004975681678921568, "original_dtype": "float32"}}, {"name": "model_13/tf.math.add_64/Add/y", "shape": [64], "dtype": "float32", "quantization": {"dtype": "uint8", "min": -1.3233302696078433, "scale": 0.016138174019607845, "original_dtype": "float32"}}, {"name": "model_13/tf.nn.convolution_48/convolution/filter", "shape": [3, 3, 128, 64], "dtype": "float32", "quantization": {"dtype": "uint8", "min": -1.0654850567088407, "scale": 0.00887904213924034, "original_dtype": "float32"}}, {"name": "model_13/tf.math.add_60/Add/y", "shape": [64], "dtype": "float32", "quantization": {"dtype": "uint8", "min": -2.467405902638155, "scale": 0.020224638546214386, "original_dtype": "float32"}}, {"name": "model_13/tf.nn.convolution_50/convolution/filter", "shape": [3, 3, 64, 64], "dtype": "float32", "quantization": {"dtype": "uint8", "min": -0.35087207158406575, "scale": 0.003855737050374349, "original_dtype": "float32"}}, {"name": "model_13/tf.math.add_62/Add/y", "shape": [64], "dtype": "float32", "quantization": {"dtype": "uint8", "min": -0.19425050511079678, "scale": 0.005886378942751417, "original_dtype": "float32"}}, {"name": "model_13/tf.nn.convolution_53/convolution/filter", "shape": [1, 1, 64, 1], "dtype": "float32", "quantization": {"dtype": "uint8", "min": -0.7757927389705883, "scale": 0.003494561887254902, "original_dtype": "float32"}}, {"name": "model_13/tf.math.add_65/Add/y", "shape": [1], "dtype": "float32", "quantization": {"dtype": "uint8", "min": -5.81640625, "scale": 1.0, "original_dtype": "float32"}}, {"name": "model_13/tf.concat_13/concat/axis", "shape": [], "dtype": "int32"}, {"name": "model_13/tf.compat.v1.transpose_7/transpose/perm", "shape": [4], "dtype": "int32"}, {"name": "model_13/tf.reshape_5/Reshape/shape", "shape": [3], "dtype": "int32"}, {"name": "model_13/tf.nn.convolution_57/convolution/filter", "shape": [3, 3, 256, 64], "dtype": "float32", "quantization": {"dtype": "uint8", "min": -0.23298100659660265, "scale": 0.002452431648385291, "original_dtype": "float32"}}, {"name": "model_13/tf.math.add_69/Add/y", "shape": [64], "dtype": "float32", "quantization": {"dtype": "uint8", "min": -2.255499985638787, "scale": 0.017621093637803023, "original_dtype": "float32"}}, {"name": "model_13/tf.nn.convolution_59/convolution/filter", "shape": [3, 3, 64, 64], "dtype": "float32", "quantization": {"dtype": "uint8", "min": -0.4776577979910608, "scale": 0.0033637873097962026, "original_dtype": "float32"}}, {"name": "model_13/tf.math.add_71/Add/y", "shape": [64], "dtype": "float32", "quantization": {"dtype": "uint8", "min": 0.17779815196990967, "scale": 0.014045966372770422, "original_dtype": "float32"}}, {"name": "model_13/tf.nn.convolution_61/convolution/filter", "shape": [1, 1, 64, 64], "dtype": "float32", "quantization": {"dtype": "uint8", "min": -0.6075367647058824, "scale": 0.0037971047794117647, "original_dtype": "float32"}}, {"name": "model_13/tf.math.add_73/Add/y", "shape": [64], "dtype": "float32", "quantization": {"dtype": "uint8", "min": -1.3990234375, "scale": 0.016080729166666665, "original_dtype": "float32"}}, {"name": "model_13/tf.strided_slice_14/ones_like/tensor", "shape": [4], "dtype": "int32"}, {"name": "model_13/tf.strided_slice_14/StridedSlice/end", "shape": [4], "dtype": "int32"}, {"name": "model_13/tf.strided_slice_14/ones_like", "shape": [4], "dtype": "int32"}, {"name": "model_13/tf.strided_slice_12/ones_like/tensor", "shape": [4], "dtype": "int32"}, {"name": "model_13/tf.strided_slice_12/StridedSlice/end", "shape": [4], "dtype": "int32"}, {"name": "model_13/tf.strided_slice_12/ones_like", "shape": [4], "dtype": "int32"}, {"name": "model_13/tf.strided_slice_10/ones_like/tensor", "shape": [4], "dtype": "int32"}, {"name": "model_13/tf.strided_slice_10/StridedSlice/end", "shape": [4], "dtype": "int32"}, {"name": "model_13/tf.strided_slice_10/ones_like", "shape": [4], "dtype": "int32"}, {"name": "model_13/tf.image.resize_1/resize/size", "shape": [2], "dtype": "int32"}, {"name": "model_13/tf.concat_7/concat/axis", "shape": [], "dtype": "int32"}, {"name": "model_13/tf.nn.convolution_31/convolution/filter", "shape": [1, 1, 192, 64], "dtype": "float32", "quantization": {"dtype": "uint8", "min": -0.8016843398412069, "scale": 0.0053804318110148115, "original_dtype": "float32"}}, {"name": "model_13/tf.math.add_43/Add/y", "shape": [64], "dtype": "float32", "quantization": {"dtype": "uint8", "min": -3.815311383266075, "scale": 0.022182042925965553, "original_dtype": "float32"}}, {"name": "model_13/tf.strided_slice_11/ones_like/tensor", "shape": [4], "dtype": "int32"}, {"name": "model_13/tf.strided_slice_11/StridedSlice/end", "shape": [4], "dtype": "int32"}, {"name": "model_13/tf.strided_slice_11/ones_like", "shape": [4], "dtype": "int32"}, {"name": "model_13/tf.nn.convolution_32/convolution/filter", "shape": [3, 3, 32, 32], "dtype": "float32", "quantization": {"dtype": "uint8", "min": -0.5254685878753662, "scale": 0.0042037487030029295, "original_dtype": "float32"}}, {"name": "model_13/tf.math.add_44/Add/y", "shape": [32], "dtype": "float32", "quantization": {"dtype": "uint8", "min": -1.8162294275620405, "scale": 0.014189292402828442, "original_dtype": "float32"}}, {"name": "model_13/tf.nn.convolution_33/convolution/filter", "shape": [3, 3, 32, 32], "dtype": "float32", "quantization": {"dtype": "uint8", "min": -1.0212322683895336, "scale": 0.009283929712632123, "original_dtype": "float32"}}, {"name": "model_13/tf.math.add_45/Add/y", "shape": [32], "dtype": "float32", "quantization": {"dtype": "uint8", "min": -1.9462458591835172, "scale": 0.021387317133884805, "original_dtype": "float32"}}, {"name": "model_13/tf.concat_8/concat/axis", "shape": [], "dtype": "int32"}, {"name": "model_13/tf.nn.convolution_34/convolution/filter", "shape": [1, 1, 96, 64], "dtype": "float32", "quantization": {"dtype": "uint8", "min": -0.922075870925305, "scale": 0.007436095733268588, "original_dtype": "float32"}}, {"name": "model_13/tf.math.add_46/Add/y", "shape": [64], "dtype": "float32", "quantization": {"dtype": "uint8", "min": -2.368132209777832, "scale": 0.02192715009053548, "original_dtype": "float32"}}, {"name": "model_13/tf.compat.v1.pad_5/Pad/paddings", "shape": [4, 2], "dtype": "int32"}, {"name": "model_13/tf.nn.convolution_35/convolution/filter", "shape": [3, 3, 64, 64], "dtype": "float32", "quantization": {"dtype": "uint8", "min": -0.4273153033911013, "scale": 0.0034460911563798493, "original_dtype": "float32"}}, {"name": "model_13/tf.math.add_47/Add/y", "shape": [64], "dtype": "float32", "quantization": {"dtype": "uint8", "min": -3.6629400477689855, "scale": 0.02261074103561102, "original_dtype": "float32"}}, {"name": "model_13/tf.strided_slice_8/ones_like/tensor", "shape": [4], "dtype": "int32"}, {"name": "model_13/tf.strided_slice_8/StridedSlice/end", "shape": [4], "dtype": "int32"}, {"name": "model_13/tf.strided_slice_8/ones_like", "shape": [4], "dtype": "int32"}, {"name": "model_13/tf.image.resize/resize/size", "shape": [2], "dtype": "int32"}, {"name": "model_13/tf.concat_5/concat/axis", "shape": [], "dtype": "int32"}, {"name": "model_13/tf.nn.convolution_27/convolution/filter", "shape": [1, 1, 384, 128], "dtype": "float32", "quantization": {"dtype": "uint8", "min": -0.8478317952623554, "scale": 0.006374675152348537, "original_dtype": "float32"}}, {"name": "model_13/tf.math.add_39/Add/y", "shape": [128], "dtype": "float32", "quantization": {"dtype": "uint8", "min": -3.4350290747249828, "scale": 0.022019417145672966, "original_dtype": "float32"}}, {"name": "model_13/tf.strided_slice_9/ones_like/tensor", "shape": [4], "dtype": "int32"}, {"name": "model_13/tf.strided_slice_9/StridedSlice/end", "shape": [4], "dtype": "int32"}, {"name": "model_13/tf.strided_slice_9/ones_like", "shape": [4], "dtype": "int32"}, {"name": "model_13/tf.nn.convolution_28/convolution/filter", "shape": [3, 3, 64, 64], "dtype": "float32", "quantization": {"dtype": "uint8", "min": -0.2954555763917811, "scale": 0.0023448855269188975, "original_dtype": "float32"}}, {"name": "model_13/tf.math.add_40/Add/y", "shape": [64], "dtype": "float32", "quantization": {"dtype": "uint8", "min": -2.8068471123190486, "scale": 0.01858839147231158, "original_dtype": "float32"}}, {"name": "model_13/tf.nn.convolution_29/convolution/filter", "shape": [3, 3, 64, 64], "dtype": "float32", "quantization": {"dtype": "uint8", "min": -0.6070645463232901, "scale": 0.005144614799349916, "original_dtype": "float32"}}, {"name": "model_13/tf.math.add_41/Add/y", "shape": [64], "dtype": "float32", "quantization": {"dtype": "uint8", "min": -2.8881604858473238, "scale": 0.01729437416675044, "original_dtype": "float32"}}, {"name": "model_13/tf.concat_6/concat/axis", "shape": [], "dtype": "int32"}, {"name": "model_13/tf.nn.convolution_30/convolution/filter", "shape": [1, 1, 192, 128], "dtype": "float32", "quantization": {"dtype": "uint8", "min": -0.5292702735639085, "scale": 0.005138546345280666, "original_dtype": "float32"}}, {"name": "model_13/tf.math.add_42/Add/y", "shape": [128], "dtype": "float32", "quantization": {"dtype": "uint8", "min": -2.3094346083846746, "scale": 0.013349332996443206, "original_dtype": "float32"}}, {"name": "model_13/tf.concat_9/concat/axis", "shape": [], "dtype": "int32"}, {"name": "model_13/tf.nn.convolution_40/convolution/filter", "shape": [1, 1, 192, 128], "dtype": "float32", "quantization": {"dtype": "uint8", "min": -0.7933554111742506, "scale": 0.006346843289394005, "original_dtype": "float32"}}, {"name": "model_13/tf.math.add_52/Add/y", "shape": [128], "dtype": "float32", "quantization": {"dtype": "uint8", "min": -3.1222158095415904, "scale": 0.02027412863338695, "original_dtype": "float32"}}, {"name": "model_13/tf.strided_slice_13/ones_like/tensor", "shape": [4], "dtype": "int32"}, {"name": "model_13/tf.strided_slice_13/StridedSlice/end", "shape": [4], "dtype": "int32"}, {"name": "model_13/tf.strided_slice_13/ones_like", "shape": [4], "dtype": "int32"}, {"name": "model_13/tf.nn.convolution_43/convolution/filter", "shape": [3, 3, 64, 64], "dtype": "float32", "quantization": {"dtype": "uint8", "min": -0.44194998507406197, "scale": 0.003225912299810671, "original_dtype": "float32"}}, {"name": "model_13/tf.math.add_55/Add/y", "shape": [64], "dtype": "float32", "quantization": {"dtype": "uint8", "min": -2.01124420820498, "scale": 0.014680614658430511, "original_dtype": "float32"}}, {"name": "model_13/tf.nn.convolution_44/convolution/filter", "shape": [3, 3, 64, 64], "dtype": "float32", "quantization": {"dtype": "uint8", "min": -1.312260919458726, "scale": 0.009509137097527, "original_dtype": "float32"}}, {"name": "model_13/tf.math.add_56/Add/y", "shape": [64], "dtype": "float32", "quantization": {"dtype": "uint8", "min": -3.1265837388880113, "scale": 0.022174352758071003, "original_dtype": "float32"}}, {"name": "model_13/tf.concat_11/concat/axis", "shape": [], "dtype": "int32"}, {"name": "model_13/tf.nn.convolution_45/convolution/filter", "shape": [1, 1, 192, 128], "dtype": "float32", "quantization": {"dtype": "uint8", "min": -1.1061828220591825, "scale": 0.0065844215598760865, "original_dtype": "float32"}}, {"name": "model_13/tf.math.add_57/Add/y", "shape": [128], "dtype": "float32", "quantization": {"dtype": "uint8", "min": -3.4945145775290096, "scale": 0.021978079103956036, "original_dtype": "float32"}}, {"name": "model_13/tf.compat.v1.pad_6/Pad/paddings", "shape": [4, 2], "dtype": "int32"}, {"name": "model_13/tf.nn.convolution_46/convolution/filter", "shape": [3, 3, 128, 128], "dtype": "float32", "quantization": {"dtype": "uint8", "min": -0.40760643108218325, "scale": 0.0028503946229523304, "original_dtype": "float32"}}, {"name": "model_13/tf.math.add_58/Add/y", "shape": [128], "dtype": "float32", "quantization": {"dtype": "uint8", "min": -2.834242581386192, "scale": 0.015833757437911686, "original_dtype": "float32"}}, {"name": "model_13/tf.strided_slice_6/ones_like/tensor", "shape": [4], "dtype": "int32"}, {"name": "model_13/tf.strided_slice_6/StridedSlice/end", "shape": [4], "dtype": "int32"}, {"name": "model_13/tf.strided_slice_6/ones_like", "shape": [4], "dtype": "int32"}, {"name": "model_13/tf.strided_slice_4/ones_like/tensor", "shape": [4], "dtype": "int32"}, {"name": "model_13/tf.strided_slice_4/StridedSlice/end", "shape": [4], "dtype": "int32"}, {"name": "model_13/tf.strided_slice_4/ones_like", "shape": [4], "dtype": "int32"}, {"name": "model_13/tf.strided_slice_2/ones_like/tensor", "shape": [4], "dtype": "int32"}, {"name": "model_13/tf.strided_slice_2/StridedSlice/end", "shape": [4], "dtype": "int32"}, {"name": "model_13/tf.strided_slice_2/ones_like", "shape": [4], "dtype": "int32"}, {"name": "model_13/tf.strided_slice/ones_like/tensor", "shape": [4], "dtype": "int32"}, {"name": "model_13/tf.strided_slice/StridedSlice/end", "shape": [4], "dtype": "int32"}, {"name": "model_13/tf.strided_slice/ones_like", "shape": [4], "dtype": "int32"}, {"name": "model_13/tf.compat.v1.pad/Pad/paddings", "shape": [4, 2], "dtype": "int32"}, {"name": "model_13/tf.nn.convolution/convolution/filter", "shape": [3, 3, 3, 16], "dtype": "float32", "quantization": {"dtype": "uint8", "min": -20.65336878159467, "scale": 0.14243702607996322, "original_dtype": "float32"}}, {"name": "model_13/tf.math.add/Add/y", "shape": [16], "dtype": "float32", "quantization": {"dtype": "uint8", "min": -2.9487328323663453, "scale": 0.03428759107402727, "original_dtype": "float32"}}, {"name": "model_13/tf.compat.v1.pad_1/Pad/paddings", "shape": [4, 2], "dtype": "int32"}, {"name": "model_13/tf.nn.convolution_1/convolution/filter", "shape": [3, 3, 16, 32], "dtype": "float32", "quantization": {"dtype": "uint8", "min": -2.060433240030326, "scale": 0.016888797049428902, "original_dtype": "float32"}}, {"name": "model_13/tf.math.add_1/Add/y", "shape": [32], "dtype": "float32", "quantization": {"dtype": "uint8", "min": -1.0444538789636948, "scale": 0.03263918371761546, "original_dtype": "float32"}}, {"name": "model_13/tf.nn.convolution_2/convolution/filter", "shape": [1, 1, 32, 32], "dtype": "float32", "quantization": {"dtype": "uint8", "min": -1.0750301676637986, "scale": 0.006073616766462139, "original_dtype": "float32"}}, {"name": "model_13/tf.math.add_2/Add/y", "shape": [32], "dtype": "float32", "quantization": {"dtype": "uint8", "min": -0.9941217422485351, "scale": 0.019492583181343826, "original_dtype": "float32"}}, {"name": "model_13/tf.strided_slice_1/ones_like/tensor", "shape": [4], "dtype": "int32"}, {"name": "model_13/tf.strided_slice_1/StridedSlice/end", "shape": [4], "dtype": "int32"}, {"name": "model_13/tf.strided_slice_1/ones_like", "shape": [4], "dtype": "int32"}, {"name": "model_13/tf.nn.convolution_3/convolution/filter", "shape": [3, 3, 16, 16], "dtype": "float32", "quantization": {"dtype": "uint8", "min": -1.8825184583663939, "scale": 0.014370369911193847, "original_dtype": "float32"}}, {"name": "model_13/tf.math.add_3/Add/y", "shape": [16], "dtype": "float32", "quantization": {"dtype": "uint8", "min": -2.816741943359375, "scale": 0.040822347005208336, "original_dtype": "float32"}}, {"name": "model_13/tf.nn.convolution_4/convolution/filter", "shape": [3, 3, 16, 16], "dtype": "float32", "quantization": {"dtype": "uint8", "min": -0.8339148046923619, "scale": 0.005522614600611668, "original_dtype": "float32"}}, {"name": "model_13/tf.math.add_4/Add/y", "shape": [16], "dtype": "float32", "quantization": {"dtype": "uint8", "min": -1.0844067573547365, "scale": 0.02126287759519091, "original_dtype": "float32"}}, {"name": "model_13/tf.concat/concat/axis", "shape": [], "dtype": "int32"}, {"name": "model_13/tf.nn.convolution_5/convolution/filter", "shape": [1, 1, 48, 32], "dtype": "float32", "quantization": {"dtype": "uint8", "min": -1.0855171582278083, "scale": 0.0074350490289575915, "original_dtype": "float32"}}, {"name": "model_13/tf.math.add_7/Add/y", "shape": [32], "dtype": "float32", "quantization": {"dtype": "uint8", "min": -2.2653722763061523, "scale": 0.026968717575073242, "original_dtype": "float32"}}, {"name": "model_13/tf.compat.v1.pad_2/Pad/paddings", "shape": [4, 2], "dtype": "int32"}, {"name": "model_13/tf.nn.convolution_6/convolution/filter", "shape": [3, 3, 32, 64], "dtype": "float32", "quantization": {"dtype": "uint8", "min": -0.33486529518576225, "scale": 0.0025368582968618354, "original_dtype": "float32"}}, {"name": "model_13/tf.math.add_8/Add/y", "shape": [64], "dtype": "float32", "quantization": {"dtype": "uint8", "min": -3.0093595897450163, "scale": 0.02639789113811418, "original_dtype": "float32"}}, {"name": "model_13/tf.nn.convolution_7/convolution/filter", "shape": [1, 1, 64, 64], "dtype": "float32", "quantization": {"dtype": "uint8", "min": -1.7382339197046617, "scale": 0.011511482911951402, "original_dtype": "float32"}}, {"name": "model_13/tf.math.add_9/Add/y", "shape": [64], "dtype": "float32", "quantization": {"dtype": "uint8", "min": -4.600514276354921, "scale": 0.03046698196261537, "original_dtype": "float32"}}, {"name": "model_13/tf.strided_slice_3/ones_like/tensor", "shape": [4], "dtype": "int32"}, {"name": "model_13/tf.strided_slice_3/StridedSlice/end", "shape": [4], "dtype": "int32"}, {"name": "model_13/tf.strided_slice_3/ones_like", "shape": [4], "dtype": "int32"}, {"name": "model_13/tf.nn.convolution_8/convolution/filter", "shape": [3, 3, 32, 32], "dtype": "float32", "quantization": {"dtype": "uint8", "min": -0.571962498216068, "scale": 0.0050172148966321755, "original_dtype": "float32"}}, {"name": "model_13/tf.math.add_10/Add/y", "shape": [32], "dtype": "float32", "quantization": {"dtype": "uint8", "min": -1.7868496642393223, "scale": 0.019009038981269388, "original_dtype": "float32"}}, {"name": "model_13/tf.nn.convolution_9/convolution/filter", "shape": [3, 3, 32, 32], "dtype": "float32", "quantization": {"dtype": "uint8", "min": -0.6731150514939253, "scale": 0.004314840073679008, "original_dtype": "float32"}}, {"name": "model_13/tf.math.add_11/Add/y", "shape": [32], "dtype": "float32", "quantization": {"dtype": "uint8", "min": -1.291571377772911, "scale": 0.012070760539933747, "original_dtype": "float32"}}, {"name": "model_13/tf.nn.convolution_10/convolution/filter", "shape": [3, 3, 32, 32], "dtype": "float32", "quantization": {"dtype": "uint8", "min": -0.3632299479316263, "scale": 0.0029292737736421473, "original_dtype": "float32"}}, {"name": "model_13/tf.math.add_14/Add/y", "shape": [32], "dtype": "float32", "quantization": {"dtype": "uint8", "min": -2.6832928405088534, "scale": 0.016666415158440084, "original_dtype": "float32"}}, {"name": "model_13/tf.nn.convolution_11/convolution/filter", "shape": [3, 3, 32, 32], "dtype": "float32", "quantization": {"dtype": "uint8", "min": -1.4217717423158533, "scale": 0.010690013100119198, "original_dtype": "float32"}}, {"name": "model_13/tf.math.add_15/Add/y", "shape": [32], "dtype": "float32", "quantization": {"dtype": "uint8", "min": -3.942746684130501, "scale": 0.027005114274866442, "original_dtype": "float32"}}, {"name": "model_13/tf.concat_1/concat/axis", "shape": [], "dtype": "int32"}, {"name": "model_13/tf.nn.convolution_12/convolution/filter", "shape": [1, 1, 128, 64], "dtype": "float32", "quantization": {"dtype": "uint8", "min": -0.5071468738948598, "scale": 0.0037566435103322947, "original_dtype": "float32"}}, {"name": "model_13/tf.math.add_18/Add/y", "shape": [64], "dtype": "float32", "quantization": {"dtype": "uint8", "min": -2.434790689804975, "scale": 0.021357813068464692, "original_dtype": "float32"}}, {"name": "model_13/tf.compat.v1.pad_3/Pad/paddings", "shape": [4, 2], "dtype": "int32"}, {"name": "model_13/tf.nn.convolution_13/convolution/filter", "shape": [3, 3, 64, 128], "dtype": "float32", "quantization": {"dtype": "uint8", "min": -0.3886767106897691, "scale": 0.0026085685281192557, "original_dtype": "float32"}}, {"name": "model_13/tf.math.add_19/Add/y", "shape": [128], "dtype": "float32", "quantization": {"dtype": "uint8", "min": -3.55520663541906, "scale": 0.021161944258446787, "original_dtype": "float32"}}, {"name": "model_13/tf.nn.convolution_14/convolution/filter", "shape": [1, 1, 128, 128], "dtype": "float32", "quantization": {"dtype": "uint8", "min": -1.1109786047654993, "scale": 0.008050569599749995, "original_dtype": "float32"}}, {"name": "model_13/tf.math.add_20/Add/y", "shape": [128], "dtype": "float32", "quantization": {"dtype": "uint8", "min": -4.315842370425954, "scale": 0.02766565622067919, "original_dtype": "float32"}}, {"name": "model_13/tf.strided_slice_5/ones_like/tensor", "shape": [4], "dtype": "int32"}, {"name": "model_13/tf.strided_slice_5/StridedSlice/end", "shape": [4], "dtype": "int32"}, {"name": "model_13/tf.strided_slice_5/ones_like", "shape": [4], "dtype": "int32"}, {"name": "model_13/tf.nn.convolution_15/convolution/filter", "shape": [3, 3, 64, 64], "dtype": "float32", "quantization": {"dtype": "uint8", "min": -0.5091029531815473, "scale": 0.0038568405544056614, "original_dtype": "float32"}}, {"name": "model_13/tf.math.add_21/Add/y", "shape": [64], "dtype": "float32", "quantization": {"dtype": "uint8", "min": -1.7283034642537436, "scale": 0.014523558523140702, "original_dtype": "float32"}}, {"name": "model_13/tf.nn.convolution_16/convolution/filter", "shape": [3, 3, 64, 64], "dtype": "float32", "quantization": {"dtype": "uint8", "min": -0.37295060040904027, "scale": 0.0033004477912304446, "original_dtype": "float32"}}, {"name": "model_13/tf.math.add_22/Add/y", "shape": [64], "dtype": "float32", "quantization": {"dtype": "uint8", "min": -3.0033829527742726, "scale": 0.015401963860380884, "original_dtype": "float32"}}, {"name": "model_13/tf.nn.convolution_17/convolution/filter", "shape": [3, 3, 64, 64], "dtype": "float32", "quantization": {"dtype": "uint8", "min": -0.31823037091423484, "scale": 0.002209933131348853, "original_dtype": "float32"}}, {"name": "model_13/tf.math.add_25/Add/y", "shape": [64], "dtype": "float32", "quantization": {"dtype": "uint8", "min": -2.3185847333833283, "scale": 0.014401147412318809, "original_dtype": "float32"}}, {"name": "model_13/tf.nn.convolution_18/convolution/filter", "shape": [3, 3, 64, 64], "dtype": "float32", "quantization": {"dtype": "uint8", "min": -1.2520766029170916, "scale": 0.009557836663489248, "original_dtype": "float32"}}, {"name": "model_13/tf.math.add_26/Add/y", "shape": [64], "dtype": "float32", "quantization": {"dtype": "uint8", "min": -3.6160932148204132, "scale": 0.023032440858728746, "original_dtype": "float32"}}, {"name": "model_13/tf.concat_2/concat/axis", "shape": [], "dtype": "int32"}, {"name": "model_13/tf.nn.convolution_19/convolution/filter", "shape": [1, 1, 256, 128], "dtype": "float32", "quantization": {"dtype": "uint8", "min": -0.3319120668897442, "scale": 0.0025930630225761264, "original_dtype": "float32"}}, {"name": "model_13/tf.math.add_29/Add/y", "shape": [128], "dtype": "float32", "quantization": {"dtype": "uint8", "min": -2.939728994930492, "scale": 0.021302384021235448, "original_dtype": "float32"}}, {"name": "model_13/tf.compat.v1.pad_4/Pad/paddings", "shape": [4, 2], "dtype": "int32"}, {"name": "model_13/tf.nn.convolution_20/convolution/filter", "shape": [3, 3, 128, 256], "dtype": "float32", "quantization": {"dtype": "uint8", "min": -0.24616892723476186, "scale": 0.002237899338497835, "original_dtype": "float32"}}, {"name": "model_13/tf.math.add_30/Add/y", "shape": [256], "dtype": "float32", "quantization": {"dtype": "uint8", "min": -3.254464727289536, "scale": 0.01892130655400893, "original_dtype": "float32"}}, {"name": "model_13/tf.nn.convolution_21/convolution/filter", "shape": [1, 1, 256, 256], "dtype": "float32", "quantization": {"dtype": "uint8", "min": -0.6173324360566981, "scale": 0.004785522760129442, "original_dtype": "float32"}}, {"name": "model_13/tf.math.add_31/Add/y", "shape": [256], "dtype": "float32", "quantization": {"dtype": "uint8", "min": -2.679727262609145, "scale": 0.018609217101452396, "original_dtype": "float32"}}, {"name": "model_13/tf.strided_slice_7/ones_like/tensor", "shape": [4], "dtype": "int32"}, {"name": "model_13/tf.strided_slice_7/StridedSlice/end", "shape": [4], "dtype": "int32"}, {"name": "model_13/tf.strided_slice_7/ones_like", "shape": [4], "dtype": "int32"}, {"name": "model_13/tf.nn.convolution_22/convolution/filter", "shape": [3, 3, 128, 128], "dtype": "float32", "quantization": {"dtype": "uint8", "min": -0.3304779582163867, "scale": 0.002484796678318697, "original_dtype": "float32"}}, {"name": "model_13/tf.math.add_32/Add/y", "shape": [128], "dtype": "float32", "quantization": {"dtype": "uint8", "min": -3.8810903081706924, "scale": 0.02410615098242666, "original_dtype": "float32"}}, {"name": "model_13/tf.nn.convolution_23/convolution/filter", "shape": [3, 3, 128, 128], "dtype": "float32", "quantization": {"dtype": "uint8", "min": -0.4958827705944286, "scale": 0.0033058851372961906, "original_dtype": "float32"}}, {"name": "model_13/tf.math.add_33/Add/y", "shape": [128], "dtype": "float32", "quantization": {"dtype": "uint8", "min": -2.203600804946002, "scale": 0.02504091823802275, "original_dtype": "float32"}}, {"name": "model_13/tf.concat_3/concat/axis", "shape": [], "dtype": "int32"}, {"name": "model_13/tf.nn.convolution_24/convolution/filter", "shape": [1, 1, 384, 256], "dtype": "float32", "quantization": {"dtype": "uint8", "min": -0.27045962074223684, "scale": 0.002198858705221438, "original_dtype": "float32"}}, {"name": "model_13/tf.math.add_36/Add/y", "shape": [256], "dtype": "float32", "quantization": {"dtype": "uint8", "min": -1.5861032149370977, "scale": 0.013217526791142482, "original_dtype": "float32"}}, {"name": "model_13/tf.nn.convolution_25/convolution/filter", "shape": [1, 1, 256, 128], "dtype": "float32", "quantization": {"dtype": "uint8", "min": -0.4754246169445561, "scale": 0.0033480606827081417, "original_dtype": "float32"}}, {"name": "model_13/tf.math.add_37/Add/y", "shape": [128], "dtype": "float32", "quantization": {"dtype": "uint8", "min": -0.3363246627882415, "scale": 0.012011595099580054, "original_dtype": "float32"}}, {"name": "model_13/tf.concat_4/concat/axis", "shape": [], "dtype": "int32"}, {"name": "model_13/tf.nn.convolution_26/convolution/filter", "shape": [1, 1, 512, 256], "dtype": "float32", "quantization": {"dtype": "uint8", "min": -0.1328242657815709, "scale": 0.0008854951052104725, "original_dtype": "float32"}}, {"name": "model_13/tf.math.add_38/Add/y", "shape": [256], "dtype": "float32", "quantization": {"dtype": "uint8", "min": -12.600524677949794, "scale": 0.07545224358053769, "original_dtype": "float32"}}, {"name": "model_13/tf.concat_12/concat/axis", "shape": [], "dtype": "int32"}, {"name": "model_13/tf.nn.convolution_51/convolution/filter", "shape": [1, 1, 384, 256], "dtype": "float32", "quantization": {"dtype": "uint8", "min": -0.6449795183013468, "scale": 0.005243735921149161, "original_dtype": "float32"}}, {"name": "model_13/tf.math.add_63/Add/y", "shape": [256], "dtype": "float32", "quantization": {"dtype": "uint8", "min": -2.995386129267075, "scale": 0.019201193136327406, "original_dtype": "float32"}}, {"name": "model_13/tf.strided_slice_15/ones_like/tensor", "shape": [4], "dtype": "int32"}, {"name": "model_13/tf.strided_slice_15/StridedSlice/end", "shape": [4], "dtype": "int32"}, {"name": "model_13/tf.strided_slice_15/ones_like", "shape": [4], "dtype": "int32"}, {"name": "model_13/tf.nn.convolution_54/convolution/filter", "shape": [3, 3, 128, 128], "dtype": "float32", "quantization": {"dtype": "uint8", "min": -0.25970181647469015, "scale": 0.002360925604315365, "original_dtype": "float32"}}, {"name": "model_13/tf.math.add_66/Add/y", "shape": [128], "dtype": "float32", "quantization": {"dtype": "uint8", "min": -3.7031524770400104, "scale": 0.020235805885464538, "original_dtype": "float32"}}, {"name": "model_13/tf.nn.convolution_55/convolution/filter", "shape": [3, 3, 128, 128], "dtype": "float32", "quantization": {"dtype": "uint8", "min": -0.4666804294960172, "scale": 0.003645940855437634, "original_dtype": "float32"}}, {"name": "model_13/tf.math.add_67/Add/y", "shape": [128], "dtype": "float32", "quantization": {"dtype": "uint8", "min": -4.127556626001994, "scale": 0.021610244115193685, "original_dtype": "float32"}}, {"name": "model_13/tf.concat_14/concat/axis", "shape": [], "dtype": "int32"}, {"name": "model_13/tf.nn.convolution_56/convolution/filter", "shape": [1, 1, 384, 256], "dtype": "float32", "quantization": {"dtype": "uint8", "min": -0.7808721617156383, "scale": 0.00507059845269895, "original_dtype": "float32"}}, {"name": "model_13/tf.math.add_68/Add/y", "shape": [256], "dtype": "float32", "quantization": {"dtype": "uint8", "min": -3.028504848480224, "scale": 0.016195213093477136, "original_dtype": "float32"}}, {"name": "model_13/tf.nn.convolution_58/convolution/filter", "shape": [3, 3, 256, 64], "dtype": "float32", "quantization": {"dtype": "uint8", "min": -0.10033863686463411, "scale": 0.0009039516834651722, "original_dtype": "float32"}}, {"name": "model_13/tf.math.add_70/Add/y", "shape": [64], "dtype": "float32", "quantization": {"dtype": "uint8", "min": -1.3090876167895746, "scale": 0.010818905923880783, "original_dtype": "float32"}}, {"name": "model_13/tf.nn.convolution_60/convolution/filter", "shape": [3, 3, 64, 64], "dtype": "float32", "quantization": {"dtype": "uint8", "min": -0.1295242443972943, "scale": 0.0010616741344040516, "original_dtype": "float32"}}, {"name": "model_13/tf.math.add_72/Add/y", "shape": [64], "dtype": "float32", "quantization": {"dtype": "uint8", "min": -0.7072209923875098, "scale": 0.009184688212824803, "original_dtype": "float32"}}, {"name": "model_13/tf.nn.convolution_62/convolution/filter", "shape": [1, 1, 64, 1], "dtype": "float32", "quantization": {"dtype": "uint8", "min": -0.569186580882353, "scale": 0.0027496936274509806, "original_dtype": "float32"}}, {"name": "model_13/tf.math.add_74/Add/y", "shape": [1], "dtype": "float32", "quantization": {"dtype": "uint8", "min": -4.546875, "scale": 1.0, "original_dtype": "float32"}}, {"name": "model_13/tf.concat_15/concat/axis", "shape": [], "dtype": "int32"}, {"name": "model_13/tf.compat.v1.transpose_12/transpose/perm", "shape": [4], "dtype": "int32"}, {"name": "model_13/tf.reshape_8/Reshape/shape", "shape": [3], "dtype": "int32"}, {"name": "model_13/tf.concat_16/concat/axis", "shape": [], "dtype": "int32"}, {"name": "model_13/tf.strided_slice_17/StridedSlice/begin", "shape": [3], "dtype": "int32"}, {"name": "model_13/tf.strided_slice_17/StridedSlice/end", "shape": [3], "dtype": "int32"}, {"name": "model_13/tf.strided_slice_17/StridedSlice/strides", "shape": [3], "dtype": "int32"}, {"name": "model_13/output0/concat/axis", "shape": [], "dtype": "int32"}]}]}